3rdPart/resource/OcrLiteOnnx/models/angle_net.onnx (onnx, 778127 bytes, 114 tensors)

337 f4 [2, 256]
000000 62 d8 b1 3d 80 d4 93 3d 2f 13 63 3e 99 2e 9e bd
       0.0868385 0.072182655 0.22175287 -0.077237315
000010 8e 18 1f 3e 8b 2e 4e be 7d 36 55 be 7a 36 57 be
       0.1553671 -0.20134942 -0.20821567 -0.21016875
000020 f0 d2 81 bd 27 61 fc bd 76 f7 e5 bd 5e e5 eb bc
       -0.06339061 -0.12323218 -0.1122884 -0.028795894
000030 4d de 11 be c9 d5 3b bd 0c b8 db 3d b4 be 0f 3e
       -0.14244957 -0.04585818 0.107284635 0.14037591
000040 4d 59 78 3d 4d e6 13 be a3 b9 83 bd 78 82 23 3e
       0.06063204 -0.14443322 -0.06431892 0.15967739
000050 46 81 b3 3d 8e e8 1d 3e 42 b0 e2 3d 6b 6f 08 3e
       0.08764891 0.15420744 0.11068775 0.13323753
000060 30 63 6e 3d 24 ca e1 3d ea 6a 02 be 04 aa fa 3d
       0.05820006 0.110248834 -0.12736097 0.12239459
000070 09 a6 ad 3d 43 77 48 be 72 ad b5 bd 72 8e 4b be
       0.08478934 -0.19576745 -0.08870973 -0.19878557
000080 ed 37 a0 3d f9 37 6d 3d e0 ab 0a 3e 53 5a 40 3e
       0.07823167 0.057914708 0.13542128 0.18784456
000090 cf 02 fa 3d 1c 02 b0 3d f1 b8 09 3e 9c c3 4b be
       0.12207567 0.08594152 0.13449456 -0.19898838
0000a0 f3 65 ed 3d 6a 42 cc 3d 8c 13 c1 3d a4 4e d9 bd
       0.11591711 0.09973605 0.094275564 -0.10610703
0000b0 d6 3e cf 3d c3 f7 a1 bd 9a eb d4 3d 92 d0 69 bd
       0.10119407 -0.07908585 0.103965 -0.057083674
0000c0 36 a5 f7 bc 44 db 9c 3d 6f a6 65 bd 6f a1 33 be
       -0.030230146 0.07659009 -0.056066927 -0.17542051
0000d0 bd ee 91 bd ac cf 16 3e 87 8a 01 be 61 2c dd 3d
       -0.07125614 0.14727658 -0.126505 0.1079948
0000e0 ad 97 3d be 54 66 9f bd 25 68 05 be 98 8b a7 bd
       -0.18514891 -0.077831894 -0.13028009 -0.08180922
0000f0 98 f6 6e be 5a 82 2c 3e 35 ba 21 3d 39 6a fc 3d
       -0.23336256 0.168466 0.03948422 0.12324948
000100 af 3d 95 3d 4e bf f0 3d ba 37 01 3e 38 e1 eb 3d
       0.07287156 0.117552385 0.12618914 0.115175664
000110 53 e8 b9 bd b6 6a f3 bd 7d 71 eb 3d 2c ac 0c be
       -0.090775155 -0.11885588 0.114962555 -0.13737553
000120 3d 82 b9 bd 0b c6 25 3e f7 69 db 3d 76 b0 73 bd
       -0.09058044 0.16188829 0.107135706 -0.05949446
000130 6b 7a b8 3d b8 02 11 3e 09 53 07 be 53 d9 a8 bd
       0.090077244 0.14161193 -0.13215269 -0.08244576
000140 a8 c0 1f 3e 9c 75 55 be 99 92 e0 bd 3a 8c 20 be
       0.15600836 -0.20845646 -0.10965461 -0.15678492
000150 e5 fe 12 3e af 74 11 3e 6c 86 8d 3d d4 5b 11 3e
       0.14355047 0.14204668 0.069104046 0.14195186
000160 da 4b ab 3d 3a 64 aa bd e7 f7 21 3e 29 d3 15 3e
       0.08364077 -0.08319898 0.15817223 0.14631332
000170 32 c1 9a bd 48 ca fa 3d 9c 44 48 3e f3 c5 0a 3e
       -0.0755638 0.12245613 0.19557422 0.13552074
000180 f2 79 b9 3d 4e 4b 3b be f0 86 a5 3d 95 ae 31 3e
       0.09056462 -0.18290445 0.08082378 0.17351754
000190 ca 30 07 3e ef 14 e3 3d 17 5d 61 be c2 5e bc 3d
       0.13202205 0.11087977 -0.22008167 0.09197761
0001a0 29 f2 a0 bd fb 15 26 be d4 07 b8 bd 7d 43 10 be
       -0.078586884 -0.16219322 -0.08985868 -0.14088245
0001b0 a1 28 d5 3d 4f be c7 3d 30 4f d6 3c 72 60 18 be
       0.1040814 0.09753095 0.026160806 -0.14880541
0001c0 76 c9 e2 3d 4a c2 51 be 1e 1f ae bd df 3c a7 bd
       0.11073582 -0.20484272 -0.08502029 -0.08165907
0001d0 9b a9 28 3e 04 06 25 3e 9d bc b4 3d 6e e3 cf bd
       0.1647095 0.16115576 0.08825038 -0.10150801
0001e0 08 9f b1 3d c9 81 0a be 13 26 16 3e c4 6e ec 3d
       0.08672911 -0.13526072 0.14662962 0.11544564
0001f0 44 bb 9c 3d 7c 1b cf bd 32 4b 9a 3d 9a 29 02 be
       0.076529056 -0.10112664 0.075338736 -0.12711182
000200 e0 97 34 be 82 22 02 3e ac 66 f7 bd 94 02 bb 3d
       -0.1763606 0.12708476 -0.1208013 0.09131351
000210 bf 72 e0 3d 9b f7 3b 3e d7 21 4d be 0a 0f 64 bd
       0.10959386 0.18356173 -0.2003244 -0.055678405
000220 bf 28 04 3e be e4 c7 bd 86 ac 02 3e 10 38 91 3d
       0.12906168 -0.09760426 0.12761125 0.07090771
000230 ae 0a 15 be c6 96 db bd da 74 b1 bd d0 8e 52 be
       -0.14554855 -0.10722117 -0.08664866 -0.20562291
000240 a9 93 b8 3d 04 5e 36 be d0 cb 44 bd 55 51 a9 bd
       0.09012539 -0.17809302 -0.048045933 -0.08267466
000250 38 0f 59 3d ba 88 20 3e f8 48 13 3e 61 aa ef 3d
       0.05299303 0.15677157 0.14383304 0.11702419
000260 da 28 45 3e 20 cc 2f 3e d8 88 32 3e 5c 00 a8 3d
       0.19253865 0.17167711 0.17435014 0.082031935
000270 2a 9a b1 bd e0 8f a3 bd 1e 41 27 3e 20 6b 09 be
       -0.086719826 -0.07986426 0.16333434 -0.13419771
000280 13 1c d3 3d 3c d5 c9 bd 68 28 a2 bd ac 94 03 3e
       0.10308089 -0.09855124 -0.07917863 0.12849683
000290 c6 85 aa bd c8 3c 2b bd 04 78 17 be 03 b4 a2 3d
       -0.083262965 -0.041806012 -0.14791876 0.07944491
0002a0 2e 7b 89 3d c6 7e a7 3d 1a 54 cf 3d b5 cf 1e 3e
       0.06712948 0.08178477 0.10123463 0.15508921
0002b0 48 21 f8 bd 4f 13 be 3d 3d 60 05 3e 5e 7e e2 3d
       -0.12115723 0.092810266 0.13024993 0.11059259
0002c0 fe 0b 18 3e 17 ef c1 3d 5b 34 ef bd 7f 46 51 be
       0.14848325 0.09469431 -0.11679908 -0.20437048
0002d0 62 97 b0 3d da 3a a1 3d 7b 5e 13 be 83 32 41 3e
       0.08622624 0.07872553 -0.1439151 0.18866925
0002e0 58 c0 c2 bd c9 48 3e be e6 50 57 bd 37 67 0a be
       -0.09509343 -0.18582453 -0.052567385 -0.13515936
0002f0 b3 90 28 be 5a f6 ed bd 19 a4 45 be 21 da 96 3d
       -0.16461448 -0.116192535 -0.1930088 0.073658235
000300 13 06 0a be 1f d7 e5 bd c3 72 5d be 7b 10 bd bd
       -0.1347888 -0.11222672 -0.2162581 -0.09231659
000310 90 a8 97 bd 67 5a 88 3c 5c d6 d5 bd ab 04 00 be
       -0.074051976 0.01664467 -0.104412764 -0.1250178
000320 e1 c0 f4 3d 9c 78 91 be f8 8d 0f be 8c 6f 29 3e
       0.11950851 -0.2841233 -0.14019 0.16546458
000330 22 ad 14 3e 01 97 07 3e ca 30 d8 3d 22 c2 04 3e
       0.1451917 0.13241197 0.10556181 0.12964681
000340 70 93 20 3e cc b6 06 be 06 56 11 be 31 ce 21 3e
       0.15681243 -0.13155669 -0.14192972 0.15801312
000350 f3 29 0f be d8 38 8d 3d 0e ee ea 3d 5e b2 f4 3d
       -0.13980846 0.06895608 0.114711866 0.11948083
000360 f4 73 20 3e a1 25 26 3e 2c 98 69 be 05 7d 6e 3e
       0.15669233 0.16225292 -0.22811955 0.23289879
000370 a2 5c 8d 3d 6a 7c 15 3e e9 11 e7 3d f3 3a e0 bd
       0.06902434 0.14598241 0.11282713 -0.10948744
000380 ee da 9e bd 31 b3 c8 bd ea 4b 0f 3e e3 76 e7 bd
       -0.07756601 -0.09799803 0.13993803 -0.11301973
000390 9c c3 1a 3e 3e d5 fd 3d a3 62 c0 bd 9a b5 c5 3d
       0.15113682 0.12394188 -0.093938135 0.096537784
0003a0 12 e8 58 3e 6d 9c 06 be 8f e9 0a be a6 e0 4a 3e
       0.21182278 -0.13145609 -0.13565658 0.19812259
0003b0 8b 4c 2d be d6 38 0b be 2b 93 1f 3e 70 86 06 be
       -0.1692373 -0.135959 0.15583484 -0.13137221
0003c0 de 32 d0 bd cf ff b0 3d af 2d e7 bd 4e 64 9c bd
       -0.10165952 0.086425416 -0.1128801 -0.07636319
0003d0 e6 bd 80 3d 1e ad 99 bd 8f a4 40 be 41 93 b4 3d
       0.0628622 -0.075037226 -0.18812774 0.08817149
0003e0 97 da 13 be 5f b4 cf bd 42 c3 e0 3d f2 3d ad bd
       -0.14438854 -0.10141825 0.109747425 -0.08459081
0003f0 60 78 27 be c3 48 4d bd 5e 77 11 3e ce 05 ad 3d
       -0.16354513 -0.05011822 0.14205691 0.08448373

338 f4 [2]
000000 25 87 ed 3c 81 f9 ed bc
       0.028995106 -0.029049637

647 f4 [24, 3, 3, 3]
000000 fb d1 12 be 57 2e 2f 3a 74 3c 62 3e 6a ed d8 bc
       -0.14337914 0.00066826254 0.22093374 -0.026480395
000010 4e 83 ad bd db 81 d0 3e f3 7b 8c 3d 86 03 b1 bd
       -0.0847231 0.40724072 0.06859579 -0.0864325
000020 f6 39 0e 3e f8 f5 f8 bd 33 80 9a bd 3d 8d 42 3e
       0.13889298 -0.1215629 -0.07543983 0.1899919
000030 d7 dc 7a 3c 8d f4 a9 be de f6 5b 3e a2 ff 6f 3e
       0.015311441 -0.3319439 0.21480891 0.2343736
000040 29 06 f8 bd b5 04 2f 3e 29 b0 93 3e 7f fe bc be
       -0.1211055 0.1709164 0.28845337 -0.36912915
000050 39 e2 04 3b 03 77 f1 3e c7 4c 40 bf 64 f9 28 bd
       0.002027644 0.4716111 -0.7511715 -0.041253462
000060 97 38 08 3f a4 7c 1c bf 63 d2 47 be 6e 51 15 32
       0.5321135 -0.61127687 -0.1951385 8.691456e-09
000070 6c 81 8d 32 34 86 3f 32 9e 2b bc 30 07 bc 47 32
       1.6473415e-08 1.11481775e-08 1.3691197e-09 1.1626077e-08
000080 c3 7c 59 32 e2 36 37 31 d6 33 6e 32 0a 96 97 32
       1.265943e-08 2.6661202e-09 1.3865209e-08 1.7646943e-08
000090 c9 44 47 32 19 1e 88 32 5b 3d 17 32 da f8 c2 31
       1.15989645e-08 1.584617e-08 8.803307e-09 5.6744343e-09
0000a0 66 87 5e 32 96 e5 53 32 68 a2 00 32 01 39 8c 32
       1.2952887e-08 1.2334018e-08 7.4875075e-09 1.6324067e-08
0000b0 2d 7d 8f 32 ba 84 0c 32 ed 50 2f 32 e6 b6 5c 31
       1.6704314e-08 8.179251e-09 1.0204741e-08 3.211818e-09
0000c0 df b9 fe 30 cb d1 e2 31 7a b9 de 31 4b 95 22 31
       1.853376e-09 6.6013164e-09 6.4821366e-09 2.3658966e-09
0000d0 96 0d 34 32 d6 7a 47 32 f7 53 66 3e 56 71 9c bf
       1.0480468e-08 1.1611254e-08 0.22492968 -1.2222087
0000e0 14 60 02 3f af 0b 54 bf 75 31 10 bf 22 02 96 3f
       0.50927854 -0.8283033 -0.56325465 1.1719401
0000f0 1b 6a d9 bd b4 d9 9a 3e 8a 97 12 3f 06 33 0b bf
       -0.10615941 0.3024422 0.5726248 -0.5437473
000100 5f ac b4 bf 3e d5 26 3f ef ba bb bf 27 31 d4 be
       -1.4115103 0.6516913 -1.4666423 -0.4144375
000110 ca cf d1 3f bb 44 34 bf ad e9 4d 3f 41 d5 a3 3f
       1.6391537 -0.70417374 0.80434686 1.2799455
000120 79 53 9c bd 6b 6d df be 8a 98 90 3e 60 d7 cf be
       -0.07633109 -0.43638167 0.28241378 -0.40594006
000130 db 7d 32 bd ec 00 0d 3f af 4c a0 3c d8 2e bf 3e
       -0.043577056 0.5507953 0.019567816 0.37340426
000140 9d 69 43 3c 86 0b b6 3e 09 67 84 bf db b0 2a 3f
       0.011927036 0.35555667 -1.0343944 0.6667611
000150 a2 f7 09 bf 7c ac c4 bf b7 a8 bc 3f 5a 92 e9 be
       -0.5389348 -1.5365138 1.4738988 -0.4561947
000160 21 19 45 bf d9 86 bd 3f b4 12 df bd ac c3 73 3e
       -0.7699147 1.4806777 -0.10892239 0.23805112
000170 75 14 a6 bd bf e9 13 3c 7f e2 51 3e c0 a7 4f bc
       -0.081093706 0.009027897 0.20496558 -0.012674272
000180 8d 6c af bd b3 4b 01 3f 75 33 05 bf 82 0e 6f be
       -0.08565626 0.5050613 -0.5203164 -0.23345378
000190 6d 6d 4b 3f fb 6b 18 bf e4 b4 0c 3f 55 20 70 3f
       0.79463845 -0.59539765 0.5496352 0.93799335
0001a0 d0 8a 92 bf a1 88 0c 3f 80 17 8f 3f 2f 1a e7 bf
       -1.1448612 0.5489598 1.1179047 -1.8054866
0001b0 53 72 f0 bb 9d 5d 7b 3e 61 3a 26 bc dd e0 8e bd
       -0.0073378473 0.2454743 -0.010145755 -0.06976483
0001c0 f6 a3 ba 3d 4d f0 22 be 6e 23 01 3e b7 48 2b 3e
       0.09113304 -0.1591198 0.12611172 0.16726957
0001d0 91 3a 93 bd b8 25 96 3d bf 7d ce 3e eb a9 91 3e
       -0.07188905 0.07331413 0.40330312 0.2844995
0001e0 c3 5c 85 3d 00 d4 68 3e 20 75 02 3e a0 9f b4 3e
       0.065118335 0.22737122 0.12739992 0.35278034
0001f0 16 6a d9 3e 9e 41 af 3e 39 93 86 be d5 f0 6d bd
       0.4246375 0.3422975 -0.26284197 -0.058091003
000200 75 7d f3 3d a7 7c 0b be be 65 d8 bd cc 19 62 3c
       0.118891634 -0.1362177 -0.10566281 0.013800096
000210 66 f3 3c bd 69 e4 a6 bd e0 71 bf 3d 62 5c 22 3f
       -0.04613056 -0.081490345 0.09347892 0.63422215
000220 6d 6f 87 3e 72 10 a9 39 45 d2 a7 be 94 cc 4d 3f
       0.264522 0.00032246445 -0.3277761 0.80390286
000230 2e 8c 4a 3f 26 29 a2 bf 3f c5 83 bf 91 f9 87 3e
       0.7912015 -1.2668808 -1.029457 0.26557592
000240 16 5a a2 3e 45 8f f8 3e 1b f4 10 bf 52 aa c6 be
       0.31709355 0.48546806 -0.56622475 -0.3880182
000250 ed 1f ac 3f 20 1d 59 be 13 c7 7a bf 76 76 1c 3f
       1.3447243 -0.21202517 -0.97960013 0.6111826
000260 b7 1e 31 3f a4 11 65 bd 38 ff eb be 21 e4 65 bf
       0.6918749 -0.055925027 -0.46093154 -0.8980122
000270 c0 25 8f 3e 3c 63 37 3f 2d e6 be bf 36 14 f9 3e
       0.27958488 0.71635795 -1.4913994 0.48648232
000280 0d df 8e 3f 05 ae 25 3e 51 45 2f b0 88 36 5e b0
       1.116182 0.16179664 -6.3763134e-10 -8.0840623e-10
000290 4c 5a 42 2f b7 4a 9d 30 c8 4b 95 b0 be ea 48 b0
       1.7676277e-10 1.1444489e-09 -1.0862715e-09 -7.3093165e-10
0002a0 46 a4 3c 31 74 e8 03 30 57 5f 58 30 18 cd 49 b1
       2.745098e-09 4.798786e-10 7.871583e-10 -2.9365932e-09
0002b0 b4 69 4d b1 9e 83 37 b1 6f 52 9a b0 2c 1f 16 b1
       -2.9891511e-09 -2.670482e-09 -1.1228404e-09 -2.1845592e-09
0002c0 5f a2 1b b1 6c c2 0b 30 31 7e a0 2f 8c 49 92 b0
       -2.2647766e-09 5.0844196e-10 2.9193495e-10 -1.0643801e-09
0002d0 97 4e 32 b1 be 27 1f b1 88 36 de b0 f5 4d 96 b0
       -2.5947082e-09 -2.3160136e-09 -1.6168125e-09 -1.0936093e-09
0002e0 0c c6 31 b1 66 c3 f6 b0 d7 57 69 b0 92 ce 54 af
       -2.5869467e-09 -1.7954391e-09 -8.4889734e-10 -1.9354676e-10
0002f0 ef 0a 20 b0 2c a2 af be 7d ce 26 3f 69 34 cd be
       -5.82232e-10 -0.34303415 0.65158826 -0.40079048
000300 7c 55 f5 be 94 f3 90 3f 43 0f 0a bf 67 f2 d0 be
       -0.47916782 1.1324334 -0.5392954 -0.40809938
000310 cb b8 3c 3f 56 6b 28 bf b2 b0 23 bf af 22 9e 3f
       0.7371947 -0.6578878 -0.6394149 1.2354335
000320 1d 43 d7 be 30 e8 81 bf e3 15 cb 3f e5 c3 24 bf
       -0.4204339 -1.0148983 1.5866054 -0.6436141
000330 b5 19 43 bf 6c d1 c1 3f 67 62 f1 be 3a df 76 be
       -0.762111 1.5142035 -0.47145388 -0.24108592
000340 be c4 4b 3f 92 a7 00 bf 2f 9e 15 bf dc f5 81 3f
       0.7959708 -0.5025569 -0.58444494 1.0153155
000350 7d 80 0b bf 06 29 7d be a9 dc 78 3f 52 9f 07 bf
       -0.5449293 -0.2472268 0.972117 -0.5297748
000360 03 3c 20 3f 72 94 54 3f 95 ee 59 3f f1 89 c6 3e
       0.6259157 0.8303901 0.8512967 0.38777116
000370 5d c0 f4 3d 9e ec e9 bd 15 74 7c bf 2d cd 6c bf
       0.11950753 -0.11422084 -0.9861463 -0.92500573
000380 18 e7 73 bf 26 65 61 3f cb 93 92 3f 5d 0f a6 3f
       -0.95274496 0.88044965 1.1451353 1.2973439
000390 26 d0 9d 3e 8f 77 8f 3d 28 c8 98 bd 6b ba 9b bf
       0.30822867 0.07005226 -0.07460052 -1.2166265
0003a0 97 a8 92 bf 1c c3 9c bf 09 e4 a5 be a4 f9 56 3d
       -1.14577 -1.2247043 -0.3240054 0.05248417
0003b0 f8 47 83 3d 37 f9 52 3e 39 8b 64 3d bd be 8b bb
       0.06410211 0.2060288 0.055796836 -0.004264681
0003c0 c1 10 ee 3d e2 c1 3a bd d2 31 74 bd 00 e6 39 3d
       0.11624289 -0.045595057 -0.059617825 0.04538536
0003d0 68 bf 43 bd 3f a7 4a 3d a3 a6 d8 3d 7d de 83 be
       -0.04778996 0.049475905 0.105786584 -0.25755683
0003e0 65 83 f8 bd 98 f4 89 3e d7 f6 7c 3d 62 2b 45 bd
       -0.121344365 0.26944423 0.061758842 -0.048137076
0003f0 80 22 ed bd bf 12 37 be 08 90 69 bd 41 b7 a9 be
       -0.11578846 -0.17878245 -0.057022125 -0.33147624

649 f4 [24]
000000 ce 19 0e 3f d3 83 42 b7 91 be 16 3f 0e 43 e6 3e
       0.55508125 -1.1593994e-05 0.5888453 0.44973034
000010 33 b2 dc 3f 62 f7 7d 3f 56 b5 02 b7 c1 03 8c 3e
       1.7241882 0.992056 -7.790824e-06 0.27346614
000020 62 2b 9d 3d 7d fd c5 bc 64 5a b5 b8 23 39 85 3f
       0.0767429 -0.024168724 -8.647589e-05 1.0408062
000030 d9 41 5c b8 0a 67 95 3e 97 88 61 3f 16 13 cf 3f
       -5.2513413e-05 0.29180175 0.88099045 1.61777
000040 e6 cf 3e b6 44 03 70 3d b8 9b b2 b6 69 7c ab 3e
       -2.843322e-06 0.058596864 -5.3229414e-06 0.33493355
000050 08 0a 3e 3f d0 80 70 3f 6d 9a 37 3f c7 eb fc b6
       0.74234056 0.9394655 0.7172001 -7.5376333e-06

651 f4 [24, 1, 3, 3]
000000 bf bd 14 bd 32 55 72 3d 8d a7 bc 3d e0 ea a6 3d
       -0.03631377 0.05916328 0.09211645 0.081502676
000010 f5 90 4b 3e 49 b7 85 3e b7 19 cc 3e f2 25 ab 3e
       0.19879515 0.26116398 0.3986337 0.33427387
000020 e8 d1 51 3e 1b e1 94 38 a6 27 50 38 81 f1 40 38
       0.20490229 7.099119e-05 4.962799e-05 4.6001285e-05
000030 a8 eb 85 38 fa 66 65 38 82 b7 17 38 5e 3a 98 37
       6.3858286e-05 5.469376e-05 3.617211e-05 1.8146991e-05
000040 0f 6a 1b 38 82 44 39 38 f0 57 48 3d b8 d5 46 3d
       3.7053655e-05 4.417124e-05 0.04891199 0.04854366
000050 5f 06 0a be c0 01 40 3e 87 c0 b1 3d 83 4e 30 be
       -0.13478993 0.18750668 0.086793 -0.1721745
000060 1e 09 6c 3e 4f d7 20 bd 8f 05 fd bd 6b 3b 2a 3d
       0.23050353 -0.039267834 -0.12354576 0.04156057
000070 a8 fd 32 bd 94 e4 08 3c a1 82 6f be 9e a0 d6 be
       -0.043698937 0.0083552785 -0.23389675 -0.41919416
000080 ea d2 8c be 79 2d 22 be 8a ce 85 be e6 05 83 be
       -0.27504665 -0.15837659 -0.2613414 -0.25590438
000090 1a 75 68 be 7e da a9 3d e9 26 be bd 2b 3b 76 be
       -0.2270092 0.08293627 -0.09284765 -0.24046008
0000a0 e5 f0 8e 3e f5 58 92 3e 2b f1 75 be 5a a9 a8 3e
       0.27918163 0.28583494 -0.2401778 0.32941705
0000b0 6c ce 25 3e cf 76 1b bd 0e 9b d5 bd 3c 7a af bc
       0.16192025 -0.0379551 -0.10429965 -0.02142059
0000c0 de 14 b1 3d 11 28 d3 3d 11 3b 2f 3e 50 47 4d 3e
       0.08646558 0.103103764 0.17112376 0.20046735
0000d0 d9 25 8b 3e c7 8f b6 3d 30 fd e9 35 b0 07 10 36
       0.27177313 0.08914142 1.743354e-06 2.1462147e-06
0000e0 b6 78 96 35 40 56 81 35 dd 4f a3 35 63 5f 3b 35
       1.1211002e-06 9.636351e-07 1.216769e-06 6.9801735e-07
0000f0 7c f3 f0 35 7a a8 6a 35 5b 10 1c b4 46 79 9a 3d
       1.7952257e-06 8.741696e-07 -1.4534582e-07 0.07542662
000100 35 1b fc bd c9 29 8d 3d 02 d0 8e bd 0c 96 a3 be
       -0.12309877 0.068927355 -0.06973268 -0.31950414
000110 82 da 03 3d f6 ee 9c 3a 5f 6c 8d be c3 53 35 3e
       0.032190807 0.0011973071 -0.27621743 0.17707734
000120 ef f4 40 bc 06 0c 96 3d f3 68 4d 3c 26 12 1c 3d
       -0.011777147 0.07326512 0.012537229 0.038103245
000130 da 4f 5b 3e b0 49 2b 3d 00 19 c2 3d 38 9f 30 3e
       0.2141718 0.04181832 0.094774246 0.17248237
000140 70 08 95 bd 2a 96 cd 3d 28 b4 0b be 53 19 e6 bc
       -0.07277 0.10038407 -0.13642943 -0.028088247
000150 3b 77 bb bd 40 bb e8 be 19 f8 c3 be 73 dc bd 3d
       -0.09153601 -0.4545536 -0.3827522 0.09270563
000160 07 cf bf be 6a f6 70 be 51 60 58 39 be a3 20 39
       -0.37462637 -0.235315 0.00020635246 0.00015319788
000170 ef 4b 59 39 93 8c 48 b8 05 64 90 b6 42 02 86 39
       0.0002072302 -4.7814636e-05 -4.3031782e-06 0.00025560154
000180 45 82 a1 38 e3 65 91 b7 fb 60 23 39 70 82 3f 3d
       7.701343e-05 -1.7332792e-05 0.0001558102 0.046755254
000190 84 d7 5e 3d b7 f1 52 3d 5c ad 23 3e 0f 4b 45 3e
       0.05440475 0.05150005 0.159841 0.19266914
0001a0 52 b4 0d be 90 98 f4 3d 44 3d 02 3e 65 73 3d be
       -0.13838318 0.119431615 0.12718683 -0.18501051
0001b0 8d 21 88 37 90 53 70 38 f3 8b 2c 38 5a 3d aa b8
       1.6228087e-05 5.7298283e-05 4.1138333e-05 -8.117659e-05
0001c0 aa 3c 96 35 33 3f 6e 38 55 e0 ed b8 60 01 e2 b8
       1.1193526e-06 5.680248e-05 -0.00011342826 -0.00010776776
0001d0 9c 1f a6 36 c3 26 41 bd 65 6b 41 3c ef 75 31 3b
       4.9508653e-06 -0.047156107 0.01180539 0.002707835
0001e0 c9 e4 0d be d3 6e 2f be bc 55 4f bd 57 bf 92 bd
       -0.13856806 -0.1713212 -0.050618872 -0.071654014
0001f0 de 84 2c be 67 50 85 bd fc b6 37 3d 80 05 93 bd
       -0.1684756 -0.06509476 0.044852242 -0.071787834
000200 54 7c 5a bd c4 37 43 bd d0 74 46 be e0 71 0f be
       -0.053341225 -0.047660604 -0.19380498 -0.14008284
000210 a1 ca 40 3d c0 ac 0c be 0d 24 3c bb a6 0c 88 3e
       0.047068242 -0.13737774 -0.0028708011 0.2657215
000220 5f 5c ea bc d0 17 50 3d dc a9 ab 3e 55 dd 85 be
       -0.0286085 0.05080396 0.3352803 -0.26145425
000230 dd 7a b6 bd f2 5c d7 3e b0 d9 88 be 5a c6 30 bd
       -0.08910153 0.420631 -0.26728582 -0.043157913
000240 d8 44 dd 36 89 30 67 36 61 02 a3 36 9a 64 c6 36
       6.5943277e-06 3.4449934e-06 4.8580555e-06 5.9125714e-06
000250 d7 95 98 36 9b 87 dd 36 72 6f ef 36 a0 da 1b 36
       4.5473967e-06 6.6021e-06 7.135729e-06 2.3224056e-06
000260 15 f9 d3 36 41 b6 2c bb a6 1d c1 3c 10 d5 77 39
       6.317287e-06 -0.002635375 0.023573708 0.00023635128
000270 12 5e 7c 3d 5d ec 4b 3e b3 f7 7d 3c 74 07 94 3d
       0.06161315 0.19914384 0.015500951 0.07227984
000280 22 76 4d 3e 9b 7a a7 bd 8a 60 fd b7 cf e4 92 b7
       0.20064595 -0.08177682 -3.0204905e-05 -1.7511104e-05
000290 b0 c6 4b b7 8b e0 43 b7 23 c1 ef 36 95 80 8b 36
       -1.2146003e-05 -1.1675186e-05 7.145239e-06 4.1574917e-06
0002a0 b3 1b 0f b8 96 ca 9f 36 2e 4f a8 37 cd 11 6c 3d
       -3.4119654e-05 4.7621534e-06 2.0064032e-05 0.057634164
0002b0 e1 ad 52 3d a1 e5 12 bc 53 3d e8 3d 43 34 22 3e
       0.051435355 -0.008965881 0.11339822 0.15840249
0002c0 eb 77 4f 3d 71 79 43 3d 54 e5 fc 3d f4 93 0c 3d
       0.050651472 0.047723237 0.12348428 0.034320787
0002d0 03 3c c2 3d 31 c5 d2 3d 4e 03 b0 bd 72 09 26 3e
       0.094841026 0.102915175 -0.0859438 0.1621454
0002e0 55 b0 b6 3d 7b f2 55 be df f7 25 3e 36 c8 e6 bc
       0.089203514 -0.2089328 0.16207837 -0.02817164
0002f0 38 e4 2d be f0 37 a7 3d 89 f8 31 3d 76 2d 0b 3e
       -0.1698159 0.08164966 0.043449912 0.1359156
000300 93 86 f1 bc c9 af c7 3d 9b f0 48 3e dc 27 d3 bd
       -0.029483115 0.09750325 0.19623034 -0.10310337
000310 65 74 90 bd e9 00 a9 3d a1 24 b9 bd 1c 0b 89 3c
       -0.070534505 0.08252127 -0.090401895 0.01672893
000320 52 93 68 be 2e 77 c9 3d 9c 41 3b 3e 7b 5d b4 bd
       -0.22712448 0.09837185 0.18286747 -0.088068925
000330 a1 25 ab 3b de 86 53 3e de 1e ef bd c3 c0 8f 36
       0.0052229916 0.20656916 -0.11675809 4.2841725e-06
000340 9b 15 55 37 1e 10 7e 36 99 ae 08 b7 3b 5c cd b6
       1.270082e-05 3.785833e-06 -8.146883e-06 -6.120213e-06
000350 05 cc f2 b6 10 60 b7 b7 b7 b9 8d b7 46 a0 6f b7
       -7.235913e-06 -2.1860033e-05 -1.689499e-05 -1.4282827e-05

653 f4 [24]
000000 d9 58 0a c0 f6 66 67 b1 7b 0f d6 bd 96 45 99 3e
       -2.1616728 -3.367345e-09 -0.104521714 0.29935902
000010 db ac 8f be 0c c9 8d be 67 ed 70 b1 2d 0d 01 3e
       -0.28061566 -0.2769245 -3.5059544e-09 0.12602682
000020 65 da 52 be 26 77 b1 3d c8 29 95 31 01 46 d3 be
       -0.20591123 0.08665304 4.3412207e-09 -0.41264346
000030 fe 7c 8b b0 41 ea 17 3f 0e e0 e9 3e 13 a3 0e bf
       -1.0149106e-09 0.5934182 0.45678753 -0.5571758
000040 ab c5 ea b0 af 5c 0f be 0a 5c 17 b1 e3 22 db be
       -1.7081921e-09 -0.140002 -2.202571e-09 -0.42800054
000050 74 9b b7 bd 27 be a6 be a9 2c c5 bc df c9 c0 b1
       -0.08965197 -0.3256695 -0.024069147 -5.6108855e-09

655 f4 [24, 24, 1, 1]
000000 f4 a7 15 3c 02 06 58 35 b1 0e 93 3d 67 12 5d bd
       0.009134281 8.0475013e-07 0.071805365 -0.053972628
000010 e0 0c 5d 3e fd f0 53 3e 0c 54 2f b6 f0 53 3c bc
       0.21586943 0.20697398 -2.6125954e-06 -0.011494622
000020 44 ec 34 be 78 a1 64 be 88 6e b7 36 82 fc 28 3e
       -0.17668253 -0.2232722 5.4666925e-06 0.16502574
000030 0d 32 0c b5 b8 0e 8c bd 18 d3 de 3c ec 9d 08 be
       -5.22269e-07 -0.06838745 0.027200267 -0.13341492
000040 c0 4c 39 b6 1d a7 a4 3d 9e be 98 35 94 32 20 3e
       -2.7611823e-06 0.08039687 1.1380359e-06 0.15644294
000050 0c ef 84 3d ed 35 a0 3d 03 1a b7 bd 18 5e 4b 36
       0.06490907 0.078227855 -0.08940508 3.0304127e-06
000060 b6 a2 63 3c 04 c5 2b 36 d7 e5 2f be 91 7f 69 bc
       0.013893774 2.5595664e-06 -0.1717752 -0.014251606
000070 1b f8 94 bc 9e c8 3b 3e 0f 33 a7 36 90 9d 5d be
       -0.018184712 0.18338248 4.982932e-06 -0.21642137
000080 a9 89 7b be d0 89 5b 3e 57 16 af 35 c8 65 79 3d
       -0.24564232 0.2143929 1.3045018e-06 0.06088808
000090 0d 4a 47 34 c0 ee a9 3e 85 a4 b1 bd 50 7c f6 bd
       1.8560259e-07 0.33189964 -0.08673958 -0.120354295
0000a0 61 dc 68 b5 9e 00 80 be 0b a1 a9 36 e3 18 1c be
       -8.674743e-07 -0.2500047 5.0553404e-06 -0.15243869
0000b0 dd fb 22 be 47 23 9d 3d d2 97 03 be 6b b9 23 36
       -0.1591639 0.07672744 -0.12850884 2.439682e-06
0000c0 e1 4e 63 3e 39 53 14 b4 58 e8 1c 3e 3b 55 01 3e
       0.22198059 -1.381385e-07 0.15323007 0.12630169
0000d0 20 9d 99 3d cf bc 4a bc 5e b8 fb 33 84 2e 18 be
       0.07500672 -0.012374117 1.17216345e-07 -0.14861494
0000e0 f4 ed 93 3d 5f 8c 02 3d 0f 12 e8 b6 e4 36 fd 3c
       0.0722312 0.03187215 -6.916241e-06 0.030909963
0000f0 b7 b9 09 b6 93 a2 6c 3d eb 01 e4 bd bc 70 3b 3e
       -2.052269e-06 0.05777223 -0.11133178 0.18304724
000100 25 67 2c b5 f1 fd 07 3e b3 fa 4f b5 9d f8 bd 3d
       -6.422509e-07 0.13280465 -7.7478325e-07 0.09275935
000110 28 1f 2c 3e e9 2f e6 bb b1 0c e8 3d 47 42 af b5
       0.1680876 -0.0070247543 0.11330546 -1.3057805e-06
000120 3f 79 8f 3e d2 61 d5 b5 b3 a9 2e be 7d 7b d9 bd
       0.2802219 -1.5898206e-06 -0.17056923 -0.10619257
000130 63 9d bc 3d 3e c6 9e 3e 2b ed 80 35 e4 69 b9 bc
       0.09209707 0.31010622 9.605768e-07 -0.0226335
000140 c0 16 7c 3d 7c 09 40 be 9f 8a 84 37 12 f1 0a be
       0.061545134 -0.18753618 1.5800177e-05 -0.13568524
000150 9a 0f fe b4 8f 3a 8d be 13 17 7c be 63 5b 49 bd
       -4.7322538e-07 -0.2758374 -0.24618177 -0.04915942
000160 55 67 cc b4 f3 b9 09 3d 40 06 ac b3 4f 0a 8c 3e
       -3.8073145e-07 0.0336246 -8.010511e-08 0.27351615
000170 52 56 33 be a9 07 06 3d f9 46 12 bd 17 1e b2 b5
       -0.17513397 0.03272215 -0.035712216 -1.3270791e-06
000180 78 e3 af 3d 7b 71 7d b6 48 77 07 3e 2d 09 a4 be
       0.08588308 -3.7765992e-06 0.13229096 -0.3203825
000190 b1 17 82 3e d6 58 02 3c 33 cf 44 b6 8c b9 41 3c
       0.254087 0.00795575 -2.9326882e-06 0.011824023
0001a0 a0 6e 1a bd a4 87 6e bd eb ca b2 37 9e c6 71 be
       -0.037703156 -0.058234826 2.1313745e-05 -0.23610923
0001b0 9b 14 30 b5 26 87 61 3b d0 46 71 bd 83 ad 09 bd
       -6.5595094e-07 0.003441283 -0.058905423 -0.03361274
0001c0 c0 1f 13 b6 cd b5 5b be 9d a6 a9 b4 12 73 0c 3e
       -2.1923188e-06 -0.2145607 -3.159993e-07 0.13715771
0001d0 d7 9b 17 3e 91 90 2d 3e af 95 9a be 8c f7 46 b5
       0.14805542 0.16949679 -0.30192325 -7.4120976e-07
0001e0 88 4f e7 bc 19 dc 7f b6 33 2d 1c bf 1e ba 96 bd
       -0.028236166 -3.8126075e-06 -0.6100647 -0.07359718
0001f0 d6 8f 3f be f2 fe ee 3b 9d 8a cc b6 0c c4 32 3e
       -0.18707213 0.0072935754 -6.0958105e-06 0.17457598
000200 2a 49 bd 3d ee c4 b8 ba f6 78 5b b7 59 3c ee bd
       0.092424706 -0.0014096776 -1.3081581e-05 -0.11632604
000210 73 ee 82 b6 28 ce b8 3c 4f f0 b3 3d 32 76 f2 bd
       -3.902061e-06 0.02255924 0.087860696 -0.1183895
000220 22 8b 0d b6 ed cb 60 3c d0 e8 1b 37 26 c2 ba bd
       -2.1091623e-06 0.013720495 9.292926e-06 -0.09119062
000230 23 54 0d 3f f8 9a 5e 3d bd 94 e4 3d 79 95 7d b5
       0.5520651 0.05434701 0.11161182 -9.4467356e-07
000240 6f fa b5 3e 63 34 ee b5 5b 79 71 bc c2 81 05 bf
       0.35542628 -1.7747628e-06 -0.014738406 -0.5215112
000250 9f 6e dc bc 0b 2f 1d 3e bd f2 00 b5 7d 6c 85 bd
       -0.026908217 0.15349977 -4.8036947e-07 -0.06514833
000260 18 1c e9 bd 3c 66 f9 be 31 23 99 b6 7f d0 9c 3d
       -0.113823116 -0.4871081 -4.563852e-06 0.07656955
000270 ff 82 dd 35 2f c0 24 be 91 68 a8 3d 35 dc 3f bb
       1.6503908e-06 -0.16088937 0.082230695 -0.002927554
000280 b9 12 8c b3 c9 87 8e bd fd cf ec b5 76 0f cb 3d
       -6.522664e-08 -0.06959493 -1.7643903e-06 0.09915058
000290 f0 d1 e7 3c 76 b0 4b 3d 03 30 60 bb 12 ec 81 b6
       0.028298348 0.049728833 -0.0034208305 -3.871982e-06
0002a0 0b 44 20 bd a4 f6 0b 33 d2 80 91 3e 93 03 a2 be
       -0.03912739 3.2587778e-08 0.28418595 -0.31643352
0002b0 2a f8 63 be 28 0b 2a be 5c f3 f4 b5 5d ea 04 be
       -0.22262636 -0.16605818 -1.8250244e-06 -0.12980027
0002c0 1e 4d 87 3c 54 96 93 3e 60 db 3b b6 c8 29 30 be
       0.016516265 0.2882563 -2.7992864e-06 -0.17203438
0002d0 0b 1c c6 b6 16 34 11 3e d8 da 3b be 08 6d 4f 3c
       -5.9041245e-06 0.14180025 -0.18345201 0.012660272
0002e0 0c 5f 0a b6 9d cf 3c be 13 7e 8e 34 0b ba 17 be
       -2.0618927e-06 -0.18438573 2.6541292e-07 -0.14817064
0002f0 c2 cb bd 3c 8e cd 55 be b9 de 3c bd 64 b7 22 36
       0.023168448 -0.20879194 -0.046110842 2.4246629e-06
000300 07 a0 38 bf a9 b6 9f b4 8e 0d 2f 3d e6 6a 3c 3e
       -0.7211918 -2.974896e-07 0.042737536 0.18400154
000310 5b 49 04 be c6 3b 19 be 04 f0 8f b6 2b 92 a1 bd
       -0.12918608 -0.14964208 -4.2896736e-06 -0.078892075
000320 36 07 c9 bb 60 50 70 3e 9a aa 64 b7 16 97 f9 3d
       -0.006134893 0.2346816 -1.362958e-05 0.121870205
000330 80 57 a8 36 84 de ea bd 7c bb ea bc c0 8c 9d bb
       5.0169765e-06 -0.11468223 -0.028653853 -0.0048080385
000340 55 4f 54 32 e0 85 2e 3d 7e 00 04 36 4f 5f 01 3e
       1.2358062e-08 0.042608142 1.966982e-06 0.12634014
000350 aa 47 95 3d 3d 84 51 3d 7c 65 ac bd 58 cd a6 b4
       0.072890595 0.051151503 -0.08417794 -3.1069317e-07
000360 45 d2 91 bd 2b fc a4 35 68 12 c1 3c fb 71 6e 3c
       -0.07120184 1.2292343e-06 0.023568347 0.014553542
000370 89 8c 31 bc f6 4b 1b 3e 2b 78 22 b4 4d 6f 2c bd
       -0.010836729 0.15165696 -1.5131143e-07 -0.042098332
000380 10 f7 ad 3e 01 2e 00 3d cc 81 6e b6 f3 51 a9 3d
       0.33977556 0.031293873 -3.5540315e-06 0.08267584
000390 8d b4 e8 34 64 93 3a be 3a 0f 33 be 62 c9 90 bc
       4.3344735e-07 -0.18220288 -0.17486277 -0.017674152
0003a0 6e 24 05 36 77 73 91 3e 17 b8 0c b5 dd 42 47 3d
       1.983975e-06 0.28408405 -5.242195e-07 0.04864775
0003b0 5b 97 3c 3d f8 c0 6c bc 1e 5d 50 3e 8f 7d fd b4
       0.04604278 -0.014450304 0.20348021 -4.7216278e-07
0003c0 ee e1 f2 3d 4e da e4 36 ac 6a 23 bd 3e 21 fc bd
       0.11859499 6.8203435e-06 -0.039896652 -0.12311028
0003d0 cc cf df bd 02 eb b0 3e ee 2c 88 36 82 f3 fb 3e
       -0.10928306 0.34554297 4.0583463e-06 0.4920922
0003e0 8b bb 1c 3e 32 de d2 bd 35 06 38 38 48 c3 7f 3e
       0.15305917 -0.10296287 4.38748e-05 0.24976838
0003f0 44 0e c3 b7 2a 54 6a 3e 97 79 9d 3d 24 35 41 3e
       -2.3252454e-05 0.22883669 0.07689207 0.18867928

657 f4 [24]
000000 13 11 79 be f9 61 4d 3e e8 2e 49 3e ae 14 f2 3e
       -0.2432292 0.20056905 0.196468 0.47281402
000010 43 7f 84 3d 26 0a c9 3c 11 58 a5 3e 0c 51 e4 3e
       0.06469586 0.024540972 0.32293752 0.44593084
000020 b7 ea 8b bd be 3c 0b 3e 01 b1 85 3e d2 ef 30 3e
       -0.06831878 0.1359739 0.26111606 0.17278984
000030 86 f1 96 be b7 ba 81 3e 4a 2d 9d 3d 41 6c 8a bd
       -0.29481143 0.25337765 0.07674654 -0.06758929
000040 0f 17 ad 3e 18 47 b3 3d ae bd cb bc db 75 23 3c
       0.33806655 0.087537944 -0.02487072 0.009976829
000050 0d 0d 0f be 49 cb 66 be 06 36 f0 3d 47 d6 4e 3e
       -0.13969822 -0.22538485 0.11729054 0.20198928

659 f4 [24, 24, 1, 1]
000000 ee 54 8f bc 7f 1b d4 b3 11 04 6a 3d 42 b0 4e 3d
       -0.017496552 -9.877021e-08 0.057132784 0.05046106
000010 37 ad c0 3e a7 06 a9 3d 68 4b 15 35 ff 84 d5 3c
       0.37632152 0.08253222 5.5616556e-07 0.026064394
000020 d4 d0 86 3d 40 d2 ab bc 57 f2 6e 36 9f 94 ae bd
       0.065827996 -0.020974278 3.5605824e-06 -0.08524441
000030 6d 72 2a 36 d0 54 0f 3e 0e c8 80 3b 89 0f c3 3e
       2.5398579e-06 0.13997197 0.0039300984 0.3809779
000040 e9 1d bd 34 31 69 27 bf 95 61 31 35 0b e9 8a 3d
       3.5225756e-07 -0.65394884 6.607964e-07 0.06782731
000050 8f 16 21 bd 30 db 56 be 95 c6 4b be 71 37 fb b5
       -0.039328154 -0.20982051 -0.19899972 -1.8717093e-06
000060 85 d9 3a ba e2 99 a4 b4 2e ff 85 bb e3 88 1b 3a
       -0.000712775 -3.0659345e-07 -0.0040892577 0.00059331785
000070 1a 7f 03 ba 63 8d cb 3a 8a 80 b4 b4 07 3a c6 ba
       -0.0005016193 0.0015529807 -3.3621137e-07 -0.0015123495
000080 7c 17 3b ba 87 32 f5 b9 7f 46 63 35 35 de 01 bb
       -0.00071369833 -0.00046767687 8.4666675e-07 -0.0019816284
000090 6b 22 b3 34 b2 db 13 3b 29 aa c0 3a 35 e8 37 39
       3.336639e-07 0.0022561369 0.0014699149 0.00017538744
0000a0 c1 67 1d 34 62 eb ac ba d3 73 b7 b4 13 2b 0f 3b
       1.465951e-07 -0.0013192708 -3.417068e-07 0.0021845743
0000b0 df ec 7f bb e3 0d 50 39 4e 13 0c bb 1c b9 9f 34
       -0.0039051098 0.00019841599 -0.0021373811 2.9750743e-07
0000c0 f1 09 37 3e d7 15 3a b6 f8 25 24 3e 1f 7b 6f 3d
       0.17874886 -2.7728872e-06 0.16030109 0.058467027
0000d0 cd cd 2a 3d 88 82 0f be 8e 69 44 b4 95 8b 18 bc
       0.041700173 -0.14014637 -1.8292323e-07 -0.009310623
0000e0 20 e1 f3 bd 87 e0 69 3d b1 b7 01 b7 75 7d f9 3d
       -0.119081736 0.05709889 -7.731768e-06 0.12182132
0000f0 04 2e 28 33 5e 57 be bd 83 e3 88 be 71 2c 10 3e
       3.91574e-08 -0.09294008 -0.26736078 0.14079453
000100 7d 3c 99 36 d5 c6 08 be 83 9e 08 36 ca f1 54 be
       4.566797e-06 -0.13357098 2.0357845e-06 -0.2079536
000110 7d 28 79 3e 52 55 6e be f1 33 18 3c ae a6 7a b5
       0.24331851 -0.23274735 0.009289728 -9.337481e-07
000120 50 27 92 3d 3b b8 ab b5 90 e0 24 3e ae 64 d1 3c
       0.071364045 -1.2794111e-06 0.16101289 0.025560703
000130 6a ef 24 3e 51 47 29 bd e0 fc 7b b4 cb 14 8f 3c
       0.16106954 -0.04132778 -2.3468192e-07 0.01746597
000140 21 39 4a 3c 3f 30 ec 3b 47 f5 89 b6 1c 84 1f 3e
       0.012342722 0.0072079 -4.111472e-06 0.1557774
000150 3f d9 13 b6 46 96 09 bd 99 27 83 bd 19 cc 77 3e
       -2.203116e-06 -0.033590578 -0.06404037 0.24198951
000160 50 c2 7c b5 b7 10 10 3c 54 4f 1f b6 27 a4 34 bd
       -9.416008e-07 0.008793048 -2.3739021e-06 -0.04410186
000170 c3 0e 24 3e e6 81 31 bd 19 91 b9 3d 71 3a 8a 36
       0.16021256 -0.04333677 0.09060878 4.119524e-06
000180 10 bc f4 bd 87 84 e9 35 49 0b c1 be 5d ec 23 bd
       -0.119499326 1.7398423e-06 -0.37703922 -0.040020335
000190 3f c7 a1 3d 9b 58 5f bd 83 7a 06 b6 a9 ba a2 bc
       0.07899331 -0.05452786 -2.0038867e-06 -0.019864397
0001a0 fb e6 45 3e 5d f9 ed bb 71 8d 07 b6 bd 15 a3 3c
       0.19326393 -0.0072623924 -2.0198897e-06 0.019907827
0001b0 55 3b e5 35 94 8d 9d be b9 2f 73 bd a5 44 73 3d
       1.7079097e-06 -0.30772078 -0.059371684 0.059391636
0001c0 34 48 9e 35 3d 2b 34 bc de 9b 72 35 f2 e6 20 3e
       1.1792931e-06 -0.010996637 9.037884e-07 0.15713099
0001d0 72 16 11 3e af dd 98 bb 9f 27 09 bd b0 9e e0 34
       0.14168718 -0.0046650986 -0.03348505 4.1838712e-07
0001e0 78 22 21 bc cd ac 92 b3 70 5c cc bb 3f 94 f7 39
       -0.009834878 -6.830087e-08 -0.0062366053 0.00047221963
0001f0 a7 53 4c ba ab 88 bc bb f0 57 89 34 d3 cd 9e bb
       -0.00077944476 -0.005753597 2.5582221e-07 -0.0048463135
000200 30 8d 52 3a 8e e2 f8 ba 23 02 76 b6 3d c0 80 bb
       0.0008031903 -0.0018988417 -3.66581e-06 -0.0039291666
000210 26 5f 52 b5 7d 1c 99 bb 4e ef 9b bb 7a ac 9a ba
       -7.8369555e-07 -0.0046725855 -0.004758752 -0.001180067
000220 57 b7 27 b5 03 fb 33 3b 99 32 9f b4 95 6e dd bb
       -6.247914e-07 0.0027462847 -2.9652873e-07 -0.006757567
000230 6c e3 02 bc cb 03 7a ba bf 72 c8 bb 1c 83 1a b4
       -0.007988792 -0.00095373084 -0.0061171944 -1.4390065e-07
000240 2b e9 62 be 04 d5 3e 34 1d 9d 66 be f6 b5 95 bc
       -0.22159259 1.7772624e-07 -0.22520871 -0.018275242
000250 57 b6 3a 3e 6c 7e 0c bd 9f 44 7f b5 21 67 82 be
       0.1823362 -0.034300253 -9.509476e-07 -0.25469306
000260 88 fd 3f 3e 0c e4 de 3d c3 1f 2d b6 20 ad e9 bd
       0.18749058 0.1088334 -2.5797497e-06 -0.11409974
000270 9c b1 4d 32 f1 4f ca bd f0 21 45 bd ce 02 a9 3d
       1.1972954e-08 -0.09878529 -0.04812807 0.08252488
000280 d6 5a eb b5 c9 48 40 3e dc e8 21 b6 30 a5 e2 bd
       -1.7535301e-06 0.18777765 -2.4126412e-06 -0.11066663
000290 a5 d3 52 be 75 47 e0 3c 2b d3 4f bd 08 4f 7c 36
       -0.20588548 0.027377823 -0.050738495 3.7596928e-06
0002a0 ff 60 09 be 5e af 01 b6 d9 4b 05 3e f3 aa 85 3d
       -0.13415907 -1.9324575e-06 0.13017215 0.065267466
0002b0 bc 17 f8 3d cd c9 9a bd c0 bc fa b5 33 91 eb bc
       0.12113902 -0.07558022 -1.8681385e-06 -0.02875576
0002c0 9d d0 d3 bc bc 18 13 3d a9 81 eb b6 7b 18 94 3c
       -0.02585631 0.03591226 -7.01864e-06 0.01807808
0002d0 65 99 cd b5 43 ff ab 3d 9d b8 f4 3b 29 7a 8f 3d
       -1.5318334e-06 0.08398297 0.0074682967 0.07005722
0002e0 0d c6 b9 35 d9 bc 80 3e e8 85 8c 34 ff 82 a5 be
       1.3841214e-06 0.2514408 2.6174462e-07 -0.32326505
0002f0 b6 05 b7 be 49 cf 1e 3c 41 f8 a8 bd f4 81 b6 b5
       -0.35746545 0.009692975 -0.08250476 -1.3597878e-06
000300 5d 83 56 31 07 4d 7a b1 fd 71 67 b1 1f 6e 8a af
       3.121577e-09 -3.6423573e-09 -3.367972e-09 -2.51803e-10
000310 c7 dd 66 b1 12 0c 3a b1 cd 3e 65 b1 ae 18 38 b1
       -3.359547e-09 -2.7073424e-09 -3.3359584e-09 -2.6789553e-09
000320 b9 74 05 b1 6f 68 87 b1 83 85 08 ae 2a 2e d1 b0
       -1.9420396e-09 -3.94089e-09 -3.1041402e-11 -1.5219872e-09
000330 23 f2 5e b1 cb 10 5c b1 29 73 6a b1 3b 87 01 31
       -3.244289e-09 -3.202376e-09 -3.4116943e-09 1.884884e-09
000340 3b 10 f5 30 d7 83 69 b1 0d fb 55 b1 b2 94 c1 b1
       1.7830709e-09 -3.3980905e-09 -3.1138285e-09 -5.633944e-09
000350 14 33 c0 30 f7 18 39 30 81 25 45 b1 51 df 2e 31
       1.3984356e-09 6.7338085e-10 -2.8688592e-09 2.5447273e-09
000360 f8 48 c8 bc 98 db ae b4 bf 10 46 3a f0 7b 7d 3b
       -0.024448857 -3.25698e-07 0.0007555596 0.0038678609
000370 1e 62 00 be d3 82 a1 bc 43 c2 17 b5 35 bf 36 3c
       -0.12537429 -0.019715702 -5.653457e-07 0.011153986
000380 2a 92 c1 3a a5 dc 82 3d 5a 4e 75 36 7c 9a ec bc
       0.0014768292 0.06389741 3.6553452e-06 -0.028882258
000390 5c d8 96 34 d2 27 fe 3b 9f 82 99 3c 9a 08 08 3e
       2.80971e-07 0.007756212 0.018739043 0.13284531
0003a0 7a 69 94 b5 34 c6 8e bb 0c 6c 7f b4 e7 26 ab 3b
       -1.1057557e-06 -0.0043571237 -2.3788033e-07 0.0052231434
0003b0 69 07 84 bc 76 bb ba bb 34 c7 42 3c 96 d2 5c 35
       -0.016116815 -0.0056986166 0.011888314 8.226283e-07
0003c0 27 b7 a9 bd ce 95 96 36 dc f6 a3 3e 2c a0 37 3e
       -0.08286887 4.487788e-06 0.32024276 0.17932194
0003d0 a6 49 bf 3e 6a 3e 6d be a1 90 2a 36 6f ca 83 3c
       0.37360877 -0.2316834 2.541616e-06 0.016087739
0003e0 64 ba 2f be f1 3f 0f 3d 2a d6 2b 37 6e 64 23 3e
       -0.17160946 0.03497309 1.0242258e-05 0.1595628
0003f0 7c 14 86 36 36 9f a3 be bc 15 c0 be 74 a1 ce 3e
       3.995896e-06 -0.31957406 -0.37516582 0.40357554

661 f4 [24]
000000 c0 b7 17 bf bd f6 f5 bc 88 da bf bc 6e 0d 6a bf
       -0.59264755 -0.03002488 -0.023419634 -0.9142674
000010 fb a8 38 3e 68 dc ea bb e8 a4 0b 3f 23 14 24 3e
       0.18033211 -0.0071673878 0.545485 0.16023307
000020 11 d1 68 b7 a9 65 35 3f e9 f5 02 bf bd 67 58 3e
       -1.3876955e-05 0.70858246 -0.5115648 0.21133323
000030 99 9f 34 b8 13 42 d7 be 76 16 88 3f bd 07 f6 be
       -4.306398e-05 -0.42042598 1.0631855 -0.4805278
000040 64 f6 10 3d 66 70 98 b7 ea c6 74 be 7c 95 db be
       0.035391226 -1.8172152e-05 -0.23904005 -0.42887485
000050 52 3b db 3f 2c 9c 1a 3f 02 10 3f 3f b0 fd 96 bb
       1.7127478 0.6039455 0.746338 -0.0046078786

663 f4 [24, 1, 3, 3]
000000 04 40 27 3e aa 75 94 3e 28 6b ac 3d 9f 22 e9 3e
       0.16333014 0.2899602 0.08418876 0.45534226
000010 6d 6a 0c 3f d0 8a a8 3e b3 c3 b3 3e da ee ee 3e
       0.5484989 0.32918406 0.35110244 0.46666604
000020 a6 18 fc 3e ad 71 e8 3d 76 5f bb bc 2b 58 29 be
       0.49237555 0.11349807 -0.022872668 -0.1653754
000030 60 7a 00 be ba f1 6d be 8a 71 37 be 88 80 86 be
       -0.12546682 -0.23236743 -0.17914405 -0.26269937
000040 28 61 29 be 92 4d 4f 3d 91 3d 06 be e2 ca 89 3e
       -0.16540968 0.050611086 -0.13109423 0.269126
000050 c1 9a a2 3e e5 b0 08 3f 6e c4 16 3f d7 c3 17 3f
       0.31758693 0.5339492 0.5889348 0.592832
000060 7a 82 2a 3f db 33 02 3f e9 dd 7a bd 3f 62 f6 3d
       0.6660534 0.50860375 -0.061246786 0.12030458
000070 28 54 ce bd 48 ab 48 3d 18 e9 ef bd ec 53 1a bf
       -0.10074645 0.04899147 -0.11714381 -0.60284305
000080 5d 60 04 bf 50 15 32 bd 03 a8 f1 be 8d a9 a1 be
       -0.5170954 -0.043477356 -0.47198495 -0.3157467
000090 c3 b0 c6 bd c3 e0 25 3e 86 5a 61 3e 3b ef c7 3e
       -0.09701683 0.16199021 0.22007188 0.39049706
0000a0 43 32 52 3f fd f0 68 3f 81 46 4f 3f dd d5 f8 3e
       0.82107943 0.9099272 0.80966955 0.48600665
0000b0 91 0c e7 3e af d5 d4 3e 7a 4f d9 3d 99 64 4a 3d
       0.45126775 0.41569278 0.10610862 0.049412344
0000c0 7e 57 31 bf 7a 70 c2 be 06 8f 26 bf e0 4d be be
       -0.6927413 -0.37976438 -0.65061986 -0.3716879
0000d0 d6 dd 1a 3e b1 37 3e 3d 39 99 24 bf d6 c0 d6 be
       0.15123686 0.04643983 -0.642963 -0.41943997
0000e0 d8 29 cd be 76 b4 84 3f ac d2 2d 3f 62 03 ae 3f
       -0.40070987 1.0367572 0.67899585 1.3594782
0000f0 6c 49 d0 3f f4 0b cc 3f ee 57 9e 3f 9c 7a 20 3e
       1.6272407 1.5941148 1.2370584 0.15671772
000100 12 66 49 bd 39 2a 90 be 5c 8f bd be c4 2c 4d bf
       -0.049169607 -0.28157213 -0.37023437 -0.8014643
000110 ac bd 2d bf 42 41 50 bf db 9a 10 bf d7 5a 8e be
       -0.6786754 -0.81349576 -0.5648629 -0.2780368
000120 f8 51 7f b8 1b 58 89 b7 ce a6 c2 b8 2e f4 d3 b8
       -6.0873077e-05 -1.63727e-05 -9.281711e-05 -0.00010106746
000130 48 ac 0a b9 25 a6 3b b9 df 2e 0c 38 e4 57 0b b8
       -0.00013224885 -0.00017895603 3.3422253e-05 -3.3222037e-05
000140 f2 e2 0f b9 20 c7 da 3e 74 57 cb bf d9 32 d3 3f
       -0.00013722086 0.42730045 -1.5886064 1.6499892
000150 48 a3 f7 bf 33 40 51 c0 0d a1 fa bd 28 57 a5 3f
       -1.9346704 -3.2695434 -0.12237749 1.2917223
000160 f1 11 76 3e 48 a7 58 40 ea 4c 11 3e 84 79 59 3e
       0.24030282 3.38521 0.14189497 0.21237761
000170 72 cd e3 3c b5 30 df 3e a9 88 18 3f 76 3a e1 3e
       0.027807925 0.43591848 0.59583527 0.43989915
000180 ee 54 1b 3f 99 ba 0a 3f e1 c9 b7 3e a0 87 55 bd
       0.6067647 0.54190975 0.3589621 -0.052131295
000190 6f 7d b8 bd 09 2d 14 be df 51 59 be a0 67 c8 be
       -0.090082996 -0.14470305 -0.21222638 -0.3914156
0001a0 d1 2b b0 be 1b 59 cb bd 18 8c 7c be 95 72 06 be
       -0.3440843 -0.09929105 -0.24662817 -0.13129647
0001b0 ca 19 86 38 d4 de 01 37 1a aa 90 38 b5 ca 12 39
       6.3944215e-05 7.74088e-06 6.898139e-05 0.0001399916
0001c0 71 57 0a 39 79 2d fb 38 25 fa 1b 39 83 6c 57 39
       0.0001319328 0.000119770826 0.00014875138 0.00020544422
0001d0 38 2d 59 39 33 83 fd be de 19 21 3e 7e 9f af 3e
       0.00020711578 -0.4951416 0.15732524 0.3430137
0001e0 cc 2f 61 3e d3 7a 20 3f 8b 28 e8 3e ad d6 58 3f
       0.2199089 0.62687415 0.45343432 0.8470257
0001f0 ad 2a f4 3e 4a d6 e8 be 6d 3d b9 3b 12 1e a4 be
       0.4768881 -0.4547599 0.0056530745 -0.32054192
000200 5e ba bd be c2 28 8d be c1 49 10 bf ed 4b ed be
       -0.3705625 -0.27570158 -0.5636254 -0.4634699
000210 00 a2 ba be ac ca 05 bf df ab 0c be 62 59 8b 3e
       -0.3645172 -0.5226238 -0.13737439 0.2721663
000220 4e bb 12 3e c0 a5 df 3d 99 e6 dc 3e c8 9a e4 3e
       0.14329264 0.10920286 0.43144682 0.4464934
000230 09 4b a7 3e 60 ea c7 3e ff f4 06 3f d4 60 1e 3f
       0.32674435 0.39046 0.52717584 0.618665
000240 72 d5 d9 3c 00 3d 72 3d 9c 37 e8 3d 8d b0 26 bf
       0.026591036 0.059140205 0.11338732 -0.65113145
000250 5a 9b 25 3e 01 3d 40 3f f0 a8 83 bf 8d f2 04 bc
       0.16172543 0.75093085 -1.0285931 -0.008114469
000260 55 6f 0b 3f 55 45 6c b8 6b 82 36 b8 55 a8 56 37
       0.54466754 -5.6331355e-05 -4.3513643e-05 1.2794587e-05
000270 0c e3 8a b7 2f 4c 8c b8 e7 52 01 b8 90 74 94 b8
       -1.6556609e-05 -6.6899105e-05 -3.0833206e-05 -7.0789014e-05
000280 66 55 be b7 f1 1f 71 b8 10 43 bf 3e 30 f3 08 3e
       -2.2689532e-05 -5.7488625e-05 0.37355852 0.13374019
000290 8c f0 64 bd b7 b3 05 3f 2f 7f 1c 3f e7 3c d2 3e
       -0.055893466 0.5222735 0.61131567 0.4106209
0002a0 39 4a d8 3d c3 cb 0d 3f 5f 47 ff 3e 3b 6c 9f bd
       0.10561032 0.5538904 0.4985914 -0.07784315
0002b0 7c 96 ec 3d ea 1b c2 bb 50 6a c7 3e cf b2 d0 3d
       0.1155214 -0.005923738 0.38948298 0.10190355
0002c0 46 be 3e 3f a3 f1 46 3f aa 53 46 3e a7 08 40 3f
       0.74509084 0.7771246 0.19367853 0.750132
0002d0 77 11 19 be 16 53 ff 3e fb 32 c1 bd 0f ed d3 bd
       -0.14948069 0.49868077 -0.09433552 -0.1034795
0002e0 7c 7c 00 40 ba 20 09 c0 25 04 4e bc 82 07 6c 3f
       2.007598 -2.1426225 -0.01257423 0.92198956
0002f0 89 68 24 c0 a5 4c 5a bd e3 5a 1e bf 6d 36 d9 be
       -2.5688803 -0.05329575 -0.6185743 -0.42424336
000300 ec f6 6c bf d3 82 89 bf e6 8c 11 bf ef 39 8b bf
       -0.9256427 -1.0743049 -0.5685562 -1.0877055
000310 05 e2 50 bf 83 19 a4 be ea 7c a2 3e 95 27 5e 3d
       -0.8159488 -0.32050714 0.31735927 0.054236967
000320 ce d0 55 be 96 83 f7 bd 6e 7c 97 be 25 be c6 be
       -0.20880434 -0.12085645 -0.2958712 -0.38816944
000330 4d d2 7e be a2 54 e7 be be 7e 93 be 6c ce 0f bd
       -0.24884911 -0.45181757 -0.28807634 -0.03510897
000340 61 84 07 bd d5 df 59 bd 5d 49 5b 3d be bb 05 3e
       -0.03308523 -0.05319198 0.05353676 0.13059899
000350 11 ca 67 3e 2e 0f 85 3d fc 1d 65 3e 85 da a0 3e
       0.22635676 0.06497036 0.2237472 0.31416717

665 f4 [24]
000000 a8 51 92 be a7 bb f0 35 c2 a7 7c bf 12 f9 b9 3e
       -0.28577924 1.7936007e-06 -0.9869348 0.36322838
000010 b2 a2 f0 bd 8c 0e a5 36 85 24 5b be ce 1d bc 3d
       -0.11749782 4.9190767e-06 -0.2140065 0.09185372
000020 4b 54 a8 b1 d1 1e 85 bd 3f c1 4d be 74 fd 9d 3e
       -4.8990265e-09 -0.065000184 -0.20093249 0.30857432
000030 4d f3 95 b0 f6 35 f3 bd 0a 97 03 40 c0 a8 84 be
       -1.0910327e-09 -0.118755266 2.0560937 -0.25909996
000040 3e e4 41 3a 3e 78 1f b1 d7 3c 0e be 1d df 9d bf
       0.00073963765 -2.3205895e-09 -0.13890396 -1.2333714
000050 4d d6 01 40 9d 4a 01 3e bb cb 45 3f 21 93 2c 36
       2.028705 0.12626119 0.77263993 2.5715638e-06
