resource/onnx/skill_ready_cls.onnx (onnx, 460406 bytes, 34 tensors)

conv1.weight f4 [10, 3, 5, 5]
0	0x3cbd3331	0.023095699
1	0x3d244f77	0.040114846
2	0x3d2f950b	0.042866748
3	0x3cdb6557	0.026781721
4	0x3da0461f	0.078258745
5	0x3ce97b2a	0.028501112
6	0x3d9b5978	0.07585424
7	0xb997f1bd	-0.00028981073
8	0xbc84ca76	-0.016209822
9	0xbda97a4b	-0.08275279
10	0xbc8dec2f	-0.017324535
11	0xbd005d33	-0.03133888
12	0xbde58814	-0.112075955
13	0x3d400e78	0.0468888
14	0x3dd30522	0.103037134
15	0xbd8e4834	-0.069473654
16	0xbe034147	-0.1281787
17	0xbdd5df3d	-0.1044297
18	0xbc1afecb	-0.009460161
19	0xbd918c4d	-0.071068384
20	0xbd0e27a7	-0.034705784
21	0x3d2bafab	0.041915577
22	0xbcb8b8f2	-0.022549126
23	0xbd986e25	-0.074428834
24	0x3d0c0f53	0.0341943
25	0x3be4c7c1	0.0069818203
26	0x3d98808c	0.07446393
27	0xbda269ce	-0.07930337
28	0x3c993c68	0.018705562
29	0x3d8388bf	0.064225666
30	0x3d8905fb	0.06690594
31	0x3cb6952d	0.02228793
32	0x3df3b2a1	0.11899305
33	0xbdb58102	-0.08862497
34	0x3c9ff9e0	0.01952833
35	0x3cd82ab8	0.026387557
36	0x3d9b5ddf	0.07586264
37	0xbc083851	-0.008314208
38	0x3d7d1c58	0.06179461
39	0xbca540c3	-0.020172482
40	0xbcf6b4a8	-0.03011544
41	0x3d0ac515	0.03387936
42	0x3d035625	0.032064576
43	0x3b8c9166	0.004289794
44	0x3c098782	0.008394124
45	0xbdcae5a5	-0.099070825
46	0xbd773539	-0.06035349
47	0x3d96a282	0.07355215
48	0x3dbf7708	0.09348875
49	0x3c969819	0.018383073
50	0x3d8af641	0.067852505
51	0xbda5b049	-0.08090264
52	0x3d32702e	0.043564014
53	0xbc8bb130	-0.017052263
54	0x3d80ea4c	0.062946886
55	0xbd53e8a8	-0.05173555
56	0x3e0633cc	0.13105696
57	0xbb54a3ca	-0.0032446259
58	0x3deaa2e3	0.114568494
59	0xbc8716fb	-0.01649045
60	0x3ddf9365	0.10916785
61	0xbd946590	-0.07245934
62	0x3c58907e	0.013218043
63	0xbd8015df	-0.062541716
64	0x3e0112fd	0.126049
65	0x3d67d3f2	0.05659861
66	0xbdc201ab	-0.094729744
67	0x3d3aa53d	0.04556774
68	0xbd23291b	-0.039834123
69	0x3d02062c	0.031744167
70	0xbdf64cf1	-0.12026394
71	0x3bea07e0	0.007142052
72	0xbb408bcf	-0.0029380207
73	0x3dc40537	0.09571307
74	0xbd0a70ce	-0.033798985
75	0xbddb6570	-0.10712707
76	0xbc8bb838	-0.017055616
77	0xbc796647	-0.015222139
78	0xbcbab93f	-0.02279341
79	0xbd966ad4	-0.073445946
80	0xbda9a6ab	-0.082837425
81	0x3cc45a83	0.02396894
82	0x3d12c696	0.035833918
83	0xbdd0e9f5	-0.10200874
84	0x3c6c34af	0.014416858
85	0xbd225d19	-0.039639566
86	0xbd7f14ed	-0.062275816
87	0x3dcb3e7b	0.099240266
88	0xbd276c08	-0.04087451
89	0xbd9b2d8c	-0.07577047
90	0x3d8313ef	0.064002864
91	0x3de45d90	0.11150658
92	0xbd134af7	-0.035960164
93	0xbcc88ede	-0.024482187
94	0xbd618d3d	-0.055066336
95	0x3e0f718f	0.14008163
96	0xbce7b068	-0.02828236
97	0x3c0acd87	0.008471853
98	0x3dbd3d4d	0.09240208
99	0xbd0318fc	-0.03200625
100	0xbdcb3925	-0.09923009
101	0x39d26980	0.00040132925
102	0x3cda89eb	0.026677093
103	0x3d53dcdb	0.051724296
104	0x3c94c16d	0.018158639
105	0x3dfb78a4	0.1227887
106	0xbbd5c354	-0.006523529
107	0xbc9ebbab	-0.019376596
108	0x3e1159d2	0.1419442
109	0x3e0c0618	0.136742
110	0x3d615571	0.055013124
111	0x3daece35	0.085354246
112	0xbb025d1f	-0.001989193
113	0x3d138acb	0.036021035
114	0x3d8d055f	0.0688579
115	0x3dfea186	0.12433152
116	0x3ce0b79d	0.027431304
117	0x3d23d9fd	0.04000281
118	0x3cec2425	0.028825829
119	0x3ca43456	0.020044487
120	0x3d49756b	0.049184244
121	0x3e26bdd6	0.16283354
122	0xbb98899d	-0.0046550767
123	0x3deaf9ba	0.11473413
124	0x3da05fed	0.078307964
125	0xbd881bc7	-0.06645923
126	0xbd9cf4cc	-0.07663879
127	0xbd936fe3	-0.07199075
128	0x3cb699d1	0.022290142
129	0xbdec8e8c	-0.11550626
130	0xbdd93fd8	-0.1060788
131	0x3dac75fa	0.0842094
132	0x3d79211e	0.0608226
133	0xbcfd5027	-0.030922009
134	0xbdc8c1d4	-0.09802595
135	0xbd8fd1d1	-0.07022441
136	0xbc9937f9	-0.018703448
137	0xbbf63ad2	-0.007514336
138	0xbdbe6d93	-0.092982434
139	0x3c09bb74	0.008406509
140	0x3ddabc9c	0.10680506
141	0x3d644928	0.05573383
142	0xbddfb9e1	-0.109241255
143	0x3c7615f3	0.015019882
144	0x3cc300c1	0.02380407
145	0xbda19c55	-0.07891146
146	0xbd82a541	-0.06379176
147	0xbdb1f4f5	-0.086893
148	0xbe195aea	-0.14976087
149	0xbde8d583	-0.11368849
150	0x3c366b72	0.011134015
151	0xbdbcc7ec	-0.092178196
152	0x3daf2319	0.08551616
153	0x3cf0b137	0.029381378
154	0x3cbc878b	0.02301385
155	0x3de7523c	0.11294982
156	0xba86104e	-0.0010228248
157	0x3e046f35	0.12933047
158	0x3c97b45a	0.018518616
159	0x3caaa371	0.020829888
160	0x3d6f255f	0.05838525
161	0xbd1eb9fd	-0.03875159
162	0xbd85727a	-0.06515975
163	0x3dc8e219	0.0980875
164	0xbc9d5844	-0.019207127
165	0xbd529953	-0.051415753
166	0xbd0fcf4e	-0.03510981
167	0xbcca3983	-0.024685627
168	0xbd203046	-0.039108537
169	0x3db02f9b	0.0860283
170	0x3defb260	0.11703944
171	0x3bd9e36a	0.0066494243
172	0x3dd3a4a4	0.10334137
173	0x3cc30ffd	0.023811335
174	0xbd9f18fc	-0.07768437
175	0xbdbbeadf	-0.091756575
176	0x3c1652b9	0.009174996
177	0x3b82c886	0.0039911894
178	0xbd42b146	-0.047532342
179	0xbdd56686	-0.104199454
180	0x3d4b3129	0.04960743
181	0x3ab8d809	0.001410247
182	0x3d6d62f7	0.05795571
183	0x3d768554	0.060185745
184	0x3c7befbd	0.015376982
185	0xba3d18a9	-0.00072134525
186	0x3daa09f2	0.08302678
187	0xbc075a53	-0.008261281
188	0xbc81a2f3	-0.01582477
189	0xbd9f55b6	-0.0778002
190	0x3d1c48d5	0.038155396
191	0x3d2a0a5a	0.04151378
192	0x3de96d70	0.11397827
193	0x3dce6f9b	0.10079881
194	0x3db43a9b	0.088002406
195	0x3d77b72d	0.060477424
196	0x3debfe4b	0.11523112
197	0x3d0187ef	0.031623777
198	0xbcda0dcc	-0.026617907
199	0xbdb21ff3	-0.086975
200	0xbded1211	-0.115757115
201	0x3d195fde	0.03744494
202	0xbc9ce44c	-0.01915183
203	0xbda86309	-0.082220145
204	0xbded328c	-0.11581907
205	0xbdae8a0f	-0.08522426
206	0x3da8737b	0.08225151
207	0xbdc0b950	-0.094103456
208	0xbd4f81ac	-0.050660774
209	0x3c3d3503	0.0115482835
210	0xbd979eef	-0.07403361
211	0x3d5784bb	0.052616816
212	0xbde40ae7	-0.11134892
213	0xbbf1809e	-0.0073700687
214	0x3da2fecb	0.07958754
215	0x3dbe2546	0.09284453
216	0xbdcd8d28	-0.10036689
217	0x3dcd81eb	0.100345455
218	0x3cc06939	0.023487674
219	0xbda6e0e5	-0.08148364
220	0xbde3c529	-0.1112159
221	0x3db87bc6	0.09007983
222	0x3d42ecf0	0.047589242
223	0xbd35b5b8	-0.044362754
224	0xbdaa8aba	-0.08327241
225	0x3dd6cc03	0.10488131
226	0x3df2b0fb	0.118501626
227	0x3e2ecd07	0.17070399
228	0x3b9d4335	0.0047992715
229	0xbbd01fc2	-0.006351442
230	0x3b4db83d	0.0031390332
231	0x3d742c18	0.059612364
232	0x3dd02828	0.10163909
233	0x3d5ad7ef	0.053428587
234	0xbd1f9773	-0.038962793
235	0xbda9857b	-0.082774125
236	0xbbab187f	-0.005221426
237	0x3cd7ee28	0.026358679
238	0x3db5c9f1	0.08876408
239	0x3d978324	0.0739806
240	0x3de6be37	0.11266749
241	0x3dd6fd06	0.10497479
242	0xbd609a15	-0.054834444
243	0xbccf4093	-0.025299346
244	0xbd6de6d3	-0.05808146
245	0xbc28df38	-0.010307126
246	0xbb303c0d	-0.0026891262
247	0x3de505e6	0.11182766
248	0x3e27d929	0.16391434
249	0x3da4d429	0.08048279
250	0xbc86545e	-0.016397651
251	0x3cb5772b	0.02215155
252	0xbd3d4364	-0.046206847
253	0xbd68dfac	-0.056853935
254	0x3d542d66	0.051801108
255	0xbe1696c5	-0.14705952

conv1.bias f4 [10]
0	0x3d6e0c0d	0.05811696
1	0xbdba56eb	-0.090986095
2	0x3c4fda7d	0.012686369
3	0xbd88786d	-0.066635944
4	0xbc0aa707	-0.008462674
5	0xbdd60483	-0.10450079
6	0x3dcb2008	0.09918219
7	0x3d91f4e3	0.071267866
8	0xbd1dd31f	-0.03853142
9	0xbd428c0b	-0.047496837

conv2.weight f4 [20, 88, 5, 5]
0	0x3c07dd62	0.008292528
1	0xbc0f02aa	-0.0087286625
2	0x3c0abbb5	0.008467604
3	0x3bcd33bf	0.006262272
4	0x3c6b23ca	0.0143517945
5	0xb9cb85fa	-0.00038818998
6	0xbb7b7fa7	-0.0038375647
7	0x3bc58537	0.0060278433
8	0x3c910e21	0.017706933
9	0xbbb7a3c1	-0.005604238
10	0x3b7dc1ff	0.0038720367
11	0x3c340b5e	0.010989038
12	0xbba19ffa	-0.004932401
13	0xbc866823	-0.016407078
14	0xbc0b2c3f	-0.008494436
15	0x3c0bdae9	0.008536079
16	0x3ca4362c	0.020045362
17	0xbbe87359	-0.0070938286
18	0xbc80d81b	-0.015728047
19	0x3c8af65b	0.016963175
20	0xbbedacfe	-0.0072532883
21	0x3bc0205e	0.0058632335
22	0xbc1ac84a	-0.009447167
23	0x3c01f964	0.0079329945
24	0xbc225bda	-0.009909594
25	0xbc6939d3	-0.014234978
26	0xbc5d2147	-0.0134967035
27	0x3c32968f	0.010900154
28	0x3be8bb60	0.007102415
29	0xbc8e573b	-0.01737558
30	0x3bd8f170	0.0066205785
31	0x3bed2869	0.0072374833
32	0x3c9023b9	0.017595159
33	0x3c9ac485	0.018892536
34	0xbc0afdb9	-0.008483344
35	0xbbcd6559	-0.006268185
36	0x3c75d04a	0.015003273
37	0xbc0f4cb0	-0.008746311
38	0xbc089ec3	-0.008338633
39	0xbc1b552e	-0.009480758
40	0xbc80fee0	-0.015746534
41	0x3c61e892	0.013788359
42	0xbae702c3	-0.0017624724
43	0x3bfaca32	0.007653498
44	0x3bdb5e16	0.0066945655
45	0x3b3da9a5	0.0028940227
46	0x3b890eb3	0.0041826605
47	0xbc956f53	-0.01824156
48	0xbbed1562	-0.007235215
49	0xbbeb3af5	-0.007178659
50	0xbc6bd63e	-0.014394341
51	0xbbbbcdf7	-0.00573134
52	0x3c8f4ac2	0.017491702
53	0x3cb10af2	0.021611664
54	0x3c257a40	0.010099947
55	0xbbb2a0e8	-0.0054513104
56	0x3c5528ac	0.013010185
57	0xbc592373	-0.013253081
58	0x3c099910	0.008398309
59	0xbc7cb80f	-0.015424742
60	0x3b73e130	0.003721308
61	0x3bf8298b	0.0075733117
62	0xbc234097	-0.00996413
63	0xbc28c597	-0.010301015
64	0xbad431d6	-0.0016189169
65	0x3c838978	0.016056761
66	0xbc36f8fd	-0.011167762
67	0x3caecdd7	0.021338386
68	0xbc5e6fde	-0.013576476
69	0x3c3dc70f	0.011583104
70	0x3cac909f	0.021065054
71	0x3cbe123a	0.02320205
72	0x3bfaaf27	0.0076502743
73	0x3b82abc1	0.00398776
74	0xbc00b50c	-0.007855665
75	0x3c80a0bd	0.015701646
76	0xbca1246a	-0.019670684
77	0xbb90dbdc	-0.0044207405
78	0xbcac6105	-0.021042356
79	0xbc8dbe1d	-0.017302567
80	0xbc9584d3	-0.018251812
81	0xbb359d8d	-0.0027712316
82	0xbb5a6e08	-0.0033329744
83	0x3b560d6b	0.0032661806
84	0x3c20973b	0.009801681
85	0xbba0a03d	-0.0049019144
86	0xbbb53cf9	-0.00553095
87	0x3a9191eb	0.0011106109
88	0xbca29c33	-0.019849872
89	0xba4da2b6	-0.0007844375
90	0xbbf05d57	-0.0073353457
91	0x3bc530de	0.0060177883
92	0x3c79cb7d	0.015246269
93	0xbc28decd	-0.010307026
94	0x3c3b1765	0.011419152
95	0xbbdcfa7e	-0.006743728
96	0x3c18df17	0.0093305325
97	0xb9820e36	-0.0002480612
98	0x3c8f92ed	0.017526114
99	0xbabe38a8	-0.0014512734
100	0x3cb1b3be	0.021692153
101	0x3beccd70	0.0072266385
102	0xbc40de16	-0.011771699
103	0x3ca48caf	0.020086614
104	0xbaf740c1	-0.0018863903
105	0xbc5d2250	-0.01349695
106	0x3bc9c459	0.0061574397
107	0x3c026b4a	0.00796015
108	0x3bae5213	0.0053198426
109	0x3ca8ed7a	0.02062105
110	0x3c88e599	0.016711043
111	0x3c10f89e	0.008848337
112	0xbc020b83	-0.007937315
113	0x3c6f4b58	0.014605366
114	0xba895816	-0.0010478522
115	0xbbb14564	-0.0054098833
116	0xbb7d8141	-0.0038681778
117	0xbba2e401	-0.004971028
118	0x3bef59ba	0.0073043974
119	0xbb3e8bba	-0.0029074983
120	0xbbe17500	-0.0068804026
121	0xbc3319b7	-0.010931424
122	0x3c55aa77	0.01304113
123	0x3cd7b4b9	0.026331292
124	0x3b02b395	0.0019943465
125	0xbcb50bb4	-0.022100307
126	0x3c28b10c	0.0102961175
127	0xbc591fce	-0.013252212
128	0x3c9d241f	0.019182263
129	0xbb58cdd6	-0.0033081672
130	0x3c8080b5	0.015686372
131	0xbbca592a	-0.00617518
132	0xbb00579f	-0.0019583476
133	0xbc1d52db	-0.009602274
134	0xbc212e14	-0.009837646
135	0x3ad34c3e	0.0016120744
136	0xbc56f42e	-0.01311974
137	0xbcb54cae	-0.02213129
138	0xbc0b7bba	-0.008513385
139	0x3c665ba4	0.014059935
140	0xbc205138	-0.009784989
141	0xba868167	-0.0010261954
142	0x3c682203	0.014168265
143	0x3949cbc0	0.00019244757
144	0xbc0cf5a7	-0.00860349
145	0xbcb7fc83	-0.022459274
146	0xbca2765a	-0.019831825
147	0x3c8806da	0.01660483
148	0x3c1d8bd4	0.009615857
149	0x3c380695	0.011232038
150	0xbccfe4eb	-0.025377711
151	0xbcee2563	-0.029070562
152	0x3bee2b5e	0.0072683534
153	0xbcb8a302	-0.022538666
154	0x3c0553ef	0.008137687
155	0x3c42544c	0.011860918
156	0xbcee3722	-0.029079024
157	0x3beb2e28	0.007177133
158	0xbbf9eb97	-0.0076269615
159	0x3b3c40be	0.0028725113
160	0xbcc58a53	-0.02411381
161	0xbc72b089	-0.014812597
162	0xbc821dca	-0.015883345
163	0x3bc5bd95	0.006034563
164	0x3a28a5b9	0.0006433386
165	0xba506f44	-0.000795115
166	0x3ac57956	0.0015066068
167	0x3c0d2fbd	0.008617339
168	0xbcede261	-0.02903861
169	0xbc1329c4	-0.008982126
170	0xbc057a8b	-0.008146892
171	0xbbda7a9f	-0.0066674496
172	0xbcea4bf4	-0.02860067
173	0xbb9ead4a	-0.004842435
174	0xbc09145a	-0.008366669
175	0x3c54a6fa	0.012979263
176	0xbca283d8	-0.019838259
177	0x3c7c1aeb	0.015387277
178	0xbc45eacd	-0.012079907
179	0xbc116f28	-0.008876599
180	0xbc9d1e15	-0.019179383
181	0x3c4841f0	0.012222752
182	0xbca5654b	-0.020189902
183	0x3a111246	0.0005534034
184	0xbbcf0552	-0.006317773
185	0x3c028a2a	0.007967511
186	0xbc0c6353	-0.008568603
187	0x3c7f2ce1	0.015574665
188	0xbc92a121	-0.017899098
189	0x3bebca2a	0.0071957307
190	0xbb92c7bc	-0.0044793766
191	0xbc8c2dd2	-0.017111693
192	0x3c78f9fc	0.01519632
193	0xbc7cec4b	-0.015437196
194	0xbcab0282	-0.02087522
195	0x3c7e2b59	0.015513265
196	0x3bc6327d	0.006048499
197	0x3bc14364	0.005897926
198	0x3be093e4	0.0068535674
199	0x3b1994eb	0.002343471
200	0x3b5c9938	0.0033660661
201	0xbcd08e6a	-0.025458533
202	0xbcec2985	-0.028828392
203	0x3bbaeadf	0.0057042683
204	0xbcc3490d	-0.023838544
205	0xbabbe955	-0.0014336506
206	0xbc906659	-0.017626928
207	0xbced48d2	-0.028965387
208	0xbc978bfc	-0.018499367
209	0x3c3b6fa2	0.01144019
210	0xbce9e271	-0.028550358
211	0x3c03dd68	0.008048393
212	0xbcbdc66c	-0.023165904
213	0xbc95b24f	-0.0182735
214	0xbcaf0b92	-0.021367822
215	0x3c40196c	0.011724811
216	0x3b231816	0.0024886183
217	0x3b95b5dd	0.004568799
218	0xbc2f6446	-0.010705059
219	0x3bbdb229	0.0057890606
220	0xba32e725	-0.00068246044
221	0xbcbd3d39	-0.023100482
222	0xbcf3606c	-0.029709063
223	0xbc0898fa	-0.008337254
224	0x3c26f0b8	0.010189228
225	0x3bb8d52d	0.005640647
226	0xbc7d701e	-0.015468625
227	0x3c8a0771	0.016849251
228	0x3c435857	0.011922917
229	0x3ca6fbe6	0.020383786
230	0x3c2d327f	0.010571121
231	0x3a9bdcb8	0.0011891341
232	0x3c0c7010	0.00857164
233	0xbbd70716	-0.006562124
234	0x3c7c8c58	0.01541432
235	0xbbd85516	-0.00660194
236	0x3c0b345c	0.00849637
237	0x3b77152e	0.0037701833
238	0x3c989705	0.0186267
239	0x3ce7a81a	0.0282784
240	0x3cb89b81	0.022535088
241	0xbb0a7aee	-0.00211304
242	0x3c9f18f7	0.019421084
243	0x3c8a30cd	0.016868973
244	0xbc3766f8	-0.011193983
245	0x3ca14920	0.019688189
246	0xbc006585	-0.007836704
247	0xbc111cde	-0.00885698
248	0x3bfefca7	0.0077815834
249	0xbbb49634	-0.0055110697
250	0x3c805dbe	0.0156697
251	0x3c0974b3	0.00838964
252	0xbbd9ee70	-0.0066507384
253	0xbb51c494	-0.0032008039
254	0x3b8c3c4e	0.00427965
255	0x3c375762	0.011190267

conv2.bias f4 [20]
0	0x3bff3654	0.007788459
1	0xbbdde343	-0.0067714765
2	0xbccfa071	-0.02534506
3	0x3c8318a8	0.016002968
4	0xbcc4c6a2	-0.024020497
5	0x3c915e52	0.01774517
6	0xba0a0a13	-0.00052657834
7	0x3a7bddab	0.0009607921
8	0x3c0912dc	0.008366313
9	0x3a274fbc	0.0006382426
10	0xbbc425a1	-0.005985931
11	0xbc2db37c	-0.010601874
12	0x3b762a80	0.0037561953
13	0xbc0419ef	-0.008062824
14	0xbc824bad	-0.015905226
15	0xbc9a4e4f	-0.018836169
16	0x3c4ca98c	0.012491595
17	0x3c8b77b4	0.017024852
18	0xbbd77954	-0.0065757427
19	0x3c931a16	0.017956775

incep1.branch_1x1.weight f4 [16, 10, 1, 1]
0	0x3ea229e2	0.3167258
1	0x3e53282c	0.20620793
2	0x3e0949a3	0.13406996
3	0xbe27f126	-0.16400585
4	0x3d37dc6c	0.044887945
5	0xbce9ac10	-0.028524429
6	0x3e9b7ae0	0.30367184
7	0x3e3be9b1	0.18350865
8	0xbe3dd5e0	-0.18538618
9	0xbce565d8	-0.028002664
10	0x3e91367a	0.28361875
11	0xbe26b986	-0.16281709
12	0x3e0e9d9f	0.13927315
13	0x3eb74fe5	0.35803142
14	0x3e2989aa	0.16556421
15	0xbd1bbfd2	-0.03802473
16	0x3e23275d	0.15932985
17	0xbe549ec4	-0.2076369
18	0xbe3295f7	-0.1744002
19	0xbe9eff95	-0.3105437
20	0xbe2a93e2	-0.16657975
21	0x3d7a84cc	0.0611618
22	0x3e7ade91	0.24498965
23	0x3ecf44bf	0.40482137
24	0xbda6558e	-0.08121787
25	0xbe809bcb	-0.2511886
26	0xbe948bdb	-0.2901295
27	0xbdbaea7b	-0.09126755
28	0xbe9cc2b2	-0.3061729
29	0xbdd2e77f	-0.102980606
30	0xb97d2dd9	-0.0002414504
31	0xbd787b0f	-0.060664233
32	0x3e90ed5f	0.283061
33	0xbe7abe6a	-0.244867
34	0x3ec3cb43	0.38241014
35	0xbda42c59	-0.08016271
36	0xbc97dcde	-0.018537935
37	0xbd8e50d5	-0.06949011
38	0x3e9b6ec8	0.30357957
39	0x3e412f85	0.18865784
40	0xbe7a6575	-0.24452765
41	0xbdfcc434	-0.1234211
42	0xbce8471a	-0.028354216
43	0x3e9f09f0	0.3106227
44	0xbe2b608c	-0.16736048
45	0xbe26c39e	-0.1628556
46	0xbe5fce3f	-0.2185602
47	0xbe33ffcc	-0.17578048
48	0xbe937e81	-0.28807452
49	0x3d35473d	0.04425739
50	0xbe92fa49	-0.28706577
51	0x3dc15fd9	0.094421096
52	0x3e722bf8	0.23649585
53	0x3e028f15	0.12749894
54	0x3e609729	0.21932663
55	0x3e5fc069	0.21850742
56	0xbe86ba0b	-0.26313815
57	0xbd4a7385	-0.049426574
58	0x3e9b0ed5	0.30284753
59	0x3c5b6c47	0.013392515
60	0xbd2bd493	-0.041950773
61	0xbd3c0f14	-0.045912817
62	0xbe93ca98	-0.28865504
63	0xbda62e05	-0.08114246
64	0xbf0af3f2	-0.5427848
65	0xbdc37d7b	-0.09545418
66	0xbd28d048	-0.041214257
67	0x3db13982	0.08653547
68	0x3d730c2e	0.059337787
69	0x3e7cfda7	0.24706136
70	0x3e63c55a	0.22243252
71	0xbe8ae11a	-0.27124864
72	0x3e59d8c7	0.212741
73	0xbec2ac7f	-0.3802223
74	0xbe4a8846	-0.19778547
75	0x3e864516	0.26224583
76	0xbe1f58f4	-0.15561277
77	0x3e92b1f2	0.28651386
78	0xbe21c94c	-0.15799445
79	0x3e327231	0.17426373
80	0x3e1aa33c	0.15101331
81	0xbe6cb188	-0.23114598
82	0xbd88395d	-0.06651566
83	0x3e732f49	0.23748507
84	0x3d75c233	0.059999656
85	0xbe09deec	-0.13463944
86	0x3d714ead	0.05891292
87	0x3cccac65	0.024984548
88	0xbd8119f7	-0.063037805
89	0x3eaad49a	0.33365327
90	0xbdfed87e	-0.12443636
91	0xbd2aa843	-0.041664373
92	0xbc569c4b	-0.013098787
93	0xbe13adae	-0.14421722
94	0x3d948e6c	0.07253727
95	0x3d1e2966	0.0386137
96	0x3c512ee1	0.012767524
97	0xbe0d70ba	-0.13812533
98	0x3e2c97f3	0.16854839
99	0xbe8fabda	-0.280608
100	0x3dfabf45	0.12243513
101	0x3dfc3129	0.12314064
102	0xbe6145f5	-0.21999343
103	0x3e947370	0.28994322
104	0xbe266369	-0.1624886
105	0xbce70816	-0.028202098
106	0xbdac7018	-0.08419818
107	0xbd8327f6	-0.06404106
108	0xbd8586f0	-0.06519878
109	0x3e7988af	0.24368547
110	0xbe349295	-0.17634042
111	0xbe91cf4e	-0.28478473
112	0xbe8146d2	-0.25249344
113	0x3e36948b	0.17830102
114	0xbe983889	-0.29730633
115	0xbdf2fc02	-0.11864473
116	0x3be85a85	0.007090869
117	0x3ea6034e	0.32424396
118	0x3e1b1fe6	0.15148887
119	0x3e8a3eae	0.27000946
120	0xbdcdd049	-0.10049493
121	0xbe0d45fa	-0.13796225
122	0x3e8aa494	0.27078688
123	0x3d89b647	0.0672422
124	0x3ed36d3c	0.41294277
125	0x3d941b46	0.072317645
126	0x3e592a0d	0.21207447
127	0x3e894b57	0.26815292
128	0x3e0932cd	0.13398285
129	0x3e6b7f6f	0.22997831
130	0x3d1785a9	0.036992703
131	0x3d2bfc89	0.041988883
132	0xbd8e18bf	-0.06938314
133	0x3e53fb34	0.20701295
134	0xbde71f9b	-0.11285325
135	0xbd89c6c1	-0.067273624
136	0xbd707319	-0.058703516
137	0xbe78724f	-0.24262355
138	0xbdd0dd5a	-0.101984695
139	0x3e82a1b0	0.25513983
140	0x3e008eef	0.12554525
141	0x3e597a29	0.21238007
142	0xbe08cb0d	-0.13358708
143	0xbe9843fe	-0.29739374
144	0xbe055756	-0.13021597
145	0xbdeaf7ac	-0.11473021
146	0x3e85f206	0.26161212
147	0x3dc8b3c7	0.09799915
148	0x3e48c89d	0.19607778
149	0xbdc01b00	-0.0938015
150	0xbe8a9010	-0.27063036
151	0xbda01345	-0.07816175
152	0xbcb0a561	-0.021563234
153	0xbe0a291e	-0.13492247
154	0x3f2dbb3a	0.6786381
155	0x3e77e241	0.24207403
156	0x3e590ed1	0.21197058
157	0xbe9e95f2	-0.30973774
158	0xbd4dd99b	-0.050256353
159	0xbe8b8cc7	-0.27255842

incep1.branch_1x1.bias f4 [16]
0	0xbe88a56f	-0.26688716
1	0x3e3f7c3f	0.1869974
2	0x3ddc59f2	0.10759343
3	0xbe3e37f4	-0.18576032
4	0xbe84891e	-0.25885862
5	0xbe917ee8	-0.28417134
6	0x3e378c7a	0.17924681
7	0xbd251351	-0.040301625
8	0x3e9d50ff	0.30725858
9	0xbe65d7d3	-0.22445612
10	0xbe223a18	-0.15842474
11	0x3d818464	0.0632408
12	0x3e3f2e76	0.18670067
13	0x3e121a67	0.14267884
14	0xbdbc3718	-0.09190196
15	0x3e77c82c	0.24197453

incep1.branch_5x5_1.weight f4 [16, 10, 1, 1]
0	0xbd096da0	-0.033551812
1	0x3e8ed2c7	0.27895185
2	0xbe8092d6	-0.25112027
3	0xbe36f08e	-0.17865202
4	0x3ea13a00	0.31489563
5	0xbe905914	-0.2819296
6	0x3e9a1de3	0.30100927
7	0xbe26e64a	-0.16298786
8	0x3e34f732	0.17672423
9	0x3e9bfd29	0.30466583
10	0xbe99f328	-0.30068326
11	0xbd2004c0	-0.03906703
12	0x3da7e99a	0.08198853
13	0xbe19802e	-0.14990303
14	0x3ebb777d	0.366146
15	0x3d9cca85	0.07655815
16	0x3d608ccd	0.054821778
17	0x3d78ff26	0.060790204
18	0x3cc5a753	0.024127638
19	0xbd029783	-0.031882774
20	0x3e34c43e	0.17652985
21	0xbdd76d88	-0.10518938
22	0xbdcc0f51	-0.09963859
23	0x3e666089	0.22497763
24	0x3e84bb8b	0.25924334
25	0x3e9d8f4d	0.30773392
26	0x3e4e4b7e	0.20145985
27	0x3da6dc16	0.08147447
28	0x3e96288e	0.29327816
29	0x3dd8cc8a	0.10585888
30	0x3e03c7c4	0.12869173
31	0x3ec75bc3	0.38937196
32	0xbddcb3e1	-0.10776497
33	0x3db7e504	0.08979228
34	0xbeb1b6e0	-0.34709835
35	0x3e3c10e5	0.1836582
36	0xbe1daebb	-0.15398686
37	0x3dde9227	0.1086772
38	0xbe4f8edc	-0.2026934
39	0xbdfbdea0	-0.12298322
40	0x3dec3331	0.115332015
41	0x3ec5c3c9	0.38625935
42	0x3e51c039	0.20483483
43	0xbe761fbf	-0.24035548
44	0xbe8d7ef7	-0.2763593
45	0xbd9de78f	-0.07710182
46	0xbe4c120b	-0.19928758
47	0xbced3af6	-0.028958779
48	0x3d95c20d	0.07312403
49	0x3dc4590b	0.09587296
50	0x3e12a280	0.14319801
51	0xbe4e5da5	-0.2015291
52	0xbd8587bc	-0.0652003
53	0xbe1708a7	-0.14749394
54	0x3e619158	0.220281
55	0xbe2a65dc	-0.16640419
56	0xbe97955e	-0.29606146
57	0xbea87aa6	-0.32906073
58	0x3e80ced4	0.25157797
59	0xbe8bd0bb	-0.27307686
60	0xbe292cdb	-0.16521017
61	0x3dc3dad4	0.095632225
62	0x3d6aa890	0.05728966
63	0x3e367729	0.17818893
64	0xbebbbe8a	-0.36668807
65	0xbdab3e68	-0.083615124
66	0xbe4cc20e	-0.19995901
67	0xbe5c0570	-0.21486449
68	0xbe039c66	-0.1285263
69	0x3e419846	0.18905744
70	0x3eaacee5	0.33360973
71	0x3d1d4528	0.03839603
72	0x3e3ce863	0.18448023
73	0x3de2ba11	0.110706456
74	0xbf0b029c	-0.54300857
75	0x3e147df5	0.14501174
76	0xbe8066d8	-0.25078464
77	0xbc408169	-0.011749604
78	0x3e1fe856	0.15615973
79	0xbd1746b8	-0.036932677
80	0x3de72723	0.112867616
81	0x3e918b63	0.28426656
82	0xbde32648	-0.11091286
83	0x3ce116ef	0.027476756
84	0xbe990d0f	-0.29892775
85	0x3e906823	0.2820445
86	0x3d4b93f2	0.04970164
87	0x3d010c54	0.031505898
88	0xbe2ed8c9	-0.17074884
89	0x3ec79403	0.3898011
90	0x3ea05070	0.3131137
91	0x3cdd69e0	0.027028024
92	0x3e4e50d8	0.20148027
93	0xbe410ceb	-0.18852584
94	0x3e224b11	0.15848948
95	0x3e261604	0.16219336
96	0xbe2b43ff	-0.16725157
97	0xbcc235b2	-0.023707245
98	0x3e170214	0.14746886
99	0x3e9d97ca	0.30779868
100	0xbcad8d52	-0.02118555
101	0x3c38688a	0.011255393
102	0xbe4344d2	-0.19069222
103	0xbe0ab7d0	-0.13546681
104	0xbec969b6	-0.39338464
105	0xbe9b243f	-0.3030109
106	0xbe712b9e	-0.23551795
107	0xbe268de2	-0.16265061
108	0x3e5de1c7	0.21668158
109	0x3def6b3b	0.116903745
110	0x3e6dcf6c	0.23223656
111	0x3ee8f1b4	0.45496905
112	0x3d32a52e	0.04361456
113	0xbdbb206d	-0.09137044
114	0xbe5549ae	-0.20828888
115	0x3e551092	0.20807102
116	0xbe122d77	-0.14275156
117	0x3e304b90	0.17216325
118	0x3eb8e2d4	0.36110556
119	0xbdc6ea8c	-0.09712705
120	0xbd005aef	-0.03133672
121	0x3ea4e66a	0.32207042
122	0x3e9fc69c	0.31206214
123	0x3e48499a	0.19559327
124	0xbd5ee01e	-0.054412954
125	0xbe854de2	-0.26035982
126	0x3d436473	0.047703218
127	0x3e0890a3	0.13336425
128	0xbde180e6	-0.110109136
129	0x3e4c1d5a	0.19933072
130	0xbea2d268	-0.31801152
131	0xbe9afd5e	-0.3027143
132	0xbd5641e1	-0.05230892
133	0xbd9217cd	-0.07133446
134	0xbea5ba80	-0.3236885
135	0xbd9a63f7	-0.07538598
136	0x3d1e13f8	0.038593262
137	0xbdea0d27	-0.1142829
138	0xbe196586	-0.14980134
139	0x3da7e3fd	0.08197782
140	0x3ea1c8f5	0.3159863
141	0xbe348f26	-0.17632732
142	0xbe4d4bfa	-0.20048514
143	0xbe19e23d	-0.1502771
144	0xbda9ca9a	-0.08290596
145	0xbdb8af8d	-0.09017859
146	0xbc2fd207	-0.010731227
147	0x3e500f74	0.20318395
148	0x3e97c6e0	0.29643917
149	0xbdabac30	-0.083824515
150	0x3d0081af	0.031373676
151	0x3e11cb82	0.14237788
152	0xbe5c5610	-0.21517205
153	0x3dd577e9	0.10423262
154	0x3da88c77	0.082299165
155	0x3ceda21c	0.029007964
156	0x3e15ef60	0.14642096
157	0x3d15e263	0.036592852
158	0xbe443f66	-0.1916481
159	0xbde6a465	-0.112618245

incep1.branch_5x5_1.bias f4 [16]
0	0x3e204e23	0.15654807
1	0xbde07c5b	-0.10961219
2	0x3e15bf82	0.14623836
3	0x3dbeb048	0.09310967
4	0xbc916b0d	-0.017751241
5	0xbd9f4d03	-0.07778361
6	0x3d12b775	0.03581949
7	0xbe51ae9c	-0.20476764
8	0xbbc539bc	-0.0060188454
9	0xbd0b8924	-0.034066334
10	0x3d8e7df8	0.069576204
11	0xbe8c343f	-0.2738361
12	0xbe770a22	-0.24124959
13	0xbe90b643	-0.28264055
14	0x3de439fd	0.11143873
15	0xbd8d3b12	-0.068960324

incep1.branch_5x5_2.weight f4 [24, 16, 5, 5]
0	0x3c9f6cbc	0.019461028
1	0xbcb516eb	-0.022105655
2	0xbcd5ac01	-0.026082994
3	0xbc707bc4	-0.0146779455
4	0x3ca4b093	0.020103728
5	0xbcaf984c	-0.021434925
6	0xbc2eb0e9	-0.010662296
7	0x3cecda69	0.02891274
8	0x3cbc4115	0.022980252
9	0xbcd70ae7	-0.026250316
10	0x3cfeef5e	0.031119999
11	0xbd0a9b13	-0.033839297
12	0xbd0396ae	-0.03212612
13	0x3d22853e	0.03967785
14	0x3c1ead6f	0.0096849045
15	0xbd15e335	-0.036593635
16	0xbbc9ecd9	-0.0061622676
17	0x3be1b491	0.0068879803
18	0x3d721d80	0.059110165
19	0x3c8c59ac	0.017132603
20	0xbd12a74c	-0.035804078
21	0x3cb3c9da	0.021946836
22	0xbc0da8fd	-0.008646247
23	0xbb446acb	-0.002997088
24	0xbce1fd01	-0.027586462
25	0xbc744643	-0.01490933
26	0x3c598787	0.013276941
27	0xbcba83f5	-0.022768
28	0xbd1658a8	-0.036705643
29	0xbd345021	-0.04402173
30	0x3cf9b42b	0.030481419
31	0xbd032b52	-0.032023735
32	0x3cd8b160	0.026451766
33	0x3d0a713f	0.033799406
34	0x3cacf00b	0.021110555
35	0xbc8d9af5	-0.017285803
36	0xbccc3347	-0.024926795
37	0xbcf670e7	-0.030083133
38	0xbd02b56a	-0.03191129
39	0xbd24b384	-0.040210262
40	0x3cb3a40d	0.021928811
41	0x3d0121d4	0.0315264
42	0x3c4c17cc	0.0124568455
43	0x3c5cdc1c	0.013480213
44	0xbd0a17ed	-0.033714224
45	0x3aa7ab9d	0.0012792234
46	0x3a484911	0.0007640282
47	0xbcaef7bd	-0.021358365
48	0xbd0c0a73	-0.034189653
49	0x3d100747	0.03516319
50	0x3d3112a1	0.043230657
51	0x3c8bdae7	0.017072154
52	0x3c6ffd40	0.014647782
53	0x3d47592d	0.04866903
54	0xbbc89a48	-0.0061219074
55	0x3d168beb	0.03675453
56	0x3c043dba	0.008071357
57	0x3bc1b6ac	0.0059116688
58	0x3ce4c373	0.027925229
59	0x3c1553e3	0.009114238
60	0xbd13fd0f	-0.036130007
61	0x3cbbab0e	0.022908714
62	0xbc84f885	-0.016231785
63	0x3bcce554	0.006252924
64	0xbc8fe2b2	-0.017564151
65	0x3d077a4d	0.03307562
66	0x3c41c6a8	0.0118271485
67	0x3cff5baa	0.031171639
68	0x3d1e16be	0.038595907
69	0x3c486517	0.012231133
70	0xbd11cdcf	-0.035596665
71	0x3c6fe6e3	0.01464245
72	0xbc8a2594	-0.016863622
73	0x3d518547	0.051152494
74	0x3cb370d5	0.021904388
75	0x3d249df5	0.040189702
76	0x3ccde1ec	0.025132142
77	0xbc106c94	-0.00881495
78	0x3c3be4f0	0.011468157
79	0x3d00c2c9	0.03143576
80	0xbc1ca946	-0.009561842
81	0x3cbf4481	0.023348095
82	0x3c153278	0.009106271
83	0x3c079199	0.008274459
84	0x3d41b2cd	0.04728966
85	0x3c843faa	0.016143639
86	0xbac52aa2	-0.0015042613
87	0x3d01a5ff	0.031652447
88	0xbd4cd582	-0.050008304
89	0x3d3a7372	0.045520253
90	0x3aa13c33	0.0012301266
91	0xbca46022	-0.020065371
92	0xbcddb800	-0.027065277
93	0xbc9201f6	-0.0178232
94	0xbd3d7e33	-0.04626293
95	0x3d07ddd7	0.033170547
96	0xbc4374d3	-0.0119297085
97	0xbca2c6ce	-0.019870188
98	0x3d3993bd	0.04530691
99	0x3d5d23f4	0.053989366
100	0xbca3ad41	-0.019980075
101	0x3cbc96e4	0.023021169
102	0xbd8a7b1c	-0.067617625
103	0xbd998b54	-0.07497278
104	0x3ca3edf6	0.02001093
105	0x3b0be200	0.0021344423
106	0x3c5b2434	0.013375331
107	0xbd857bc4	-0.06517747
108	0xbd4eab8d	-0.050456572
109	0xbd3eecfc	-0.046612725
110	0x3be9878a	0.007126753
111	0x3d053b4b	0.03252725
112	0xbace4926	-0.0015738353
113	0xbc98434f	-0.018586783
114	0x3d0e1b28	0.034693867
115	0xbd563d10	-0.052304327
116	0xbc8c508e	-0.017128255
117	0x3d21aeda	0.039473392
118	0xbcd6fd96	-0.026243966
119	0x3c8cdc74	0.017194964
120	0xbd3528a2	-0.044228204
121	0xbd325be5	-0.04354467
122	0xbd3cbca8	-0.046078354
123	0x3c12d3c2	0.00896162
124	0xbd01f99a	-0.03173218
125	0x3cd6a7e3	0.026203102
126	0x3cb2f110	0.021843463
127	0x3c44f505	0.012021308
128	0xbc8bd699	-0.017070102
129	0xbd34ad6c	-0.0441107
130	0xbc98d2e5	-0.01865525
131	0xbd586a48	-0.052835733
132	0xbd2cea76	-0.042215787
133	0xbd1da24c	-0.038484856
134	0x3cd36cdf	0.02580875
135	0x3b23e66d	0.002500917
136	0xbce4dea6	-0.027938198
137	0x3c2be95a	0.010492647
138	0xbc6a7982	-0.014311196
139	0xbc583c3a	-0.013197953
140	0x3d1d979e	0.03847467
141	0xbd3b3486	-0.045704387
142	0xbd038ab1	-0.03211469
143	0x3cced4e5	0.025248
144	0xbd2f4c84	-0.04279758
145	0xbc78fc03	-0.015196803
146	0x3ce728f1	0.028217765
147	0xbd401dbb	-0.046903353
148	0xb8df8a3c	-0.00010659217
149	0x3c9fb6e8	0.019496396
150	0x3b06f8af	0.0020595004
151	0xbbd1b27d	-0.0063994513
152	0x3c944c01	0.018102648
153	0xbcafd784	-0.02146507
154	0xbbf5fe5e	-0.0075071296
155	0xbad36e02	-0.0016130807
156	0xbcb27765	-0.021785447
157	0x3d1f1fa7	0.038848545
158	0x3c6d4afb	0.014483209
159	0x3d2c5d73	0.042081308
160	0x3af9a639	0.0019046731
161	0xbd52b1da	-0.051439144
162	0x3c5ed13a	0.013599688
163	0x3c981271	0.018563481
164	0xbd3b2ce6	-0.045697115
165	0xbb674fc7	-0.0035295354
166	0xbcc16150	-0.023605973
167	0x3ccee1bf	0.025254129
168	0xbcfb8d2d	-0.030706966
169	0x3d1c5927	0.03817096
170	0x3b09f944	0.0021053115
171	0x3cb85777	0.022502644
172	0x3bb9a691	0.005665608
173	0x3b2f38a0	0.0026736632
174	0xbcfd2f3f	-0.030906318
175	0xbd019dec	-0.031644747
176	0xbd825f41	-0.063658245
177	0xbd51c859	-0.051216457
178	0xbd11c9c7	-0.03559282
179	0xbc801f85	-0.01564003
180	0x3cd0a4e6	0.025469255
181	0xbd5e977d	-0.05434369
182	0xbc91c9b5	-0.017796377
183	0x3cf5354c	0.02993264
184	0xbd1bd61b	-0.038045984
185	0xbbd9552c	-0.0066324677
186	0xbc53f638	-0.012937121
187	0xbd15183d	-0.03640007
188	0xbd232352	-0.039828606
189	0x3c0c62dc	0.008568492
190	0x3b753067	0.0037412883
191	0x3c8a0ff9	0.01685332
192	0xbb6606ad	-0.0035099194
193	0xbca70e10	-0.020392448
194	0xbc27c22f	-0.010239168
195	0x3a32657f	0.0006805285
196	0xbcc6ec0a	-0.024282474
197	0xbd2450ce	-0.040116124
198	0x3d031ddb	0.032010894
199	0xbd375058	-0.044754356
200	0x3c7c79b6	0.0154098775
201	0x3cf2cef6	0.029639702
202	0xbd7ab9d7	-0.061212387
203	0xbd7c38ef	-0.061577734
204	0xbd08d335	-0.033404548
205	0xbcdfc74d	-0.027316714
206	0xbc4775ee	-0.012174113
207	0x3cc8f80d	0.024532342
208	0xbd373d80	-0.044736385
209	0xbac17379	-0.0014759145
210	0xbd5d9795	-0.054099638
211	0xbd01168a	-0.031515636
212	0xbd455fd5	-0.048187096
213	0x3bad2282	0.0052836547
214	0xbc29d7a2	-0.010366352
215	0xbd16b18c	-0.036790416
216	0xbbe5c0a5	-0.0070114904
217	0x3cdf253e	0.027239438
218	0x3d1da97e	0.03849172
219	0x3abff3fe	0.0014644859
220	0x3ca93104	0.020653255
221	0xbac8caab	-0.0015319189
222	0xbd6e1f55	-0.05813535
223	0xbd107406	-0.0352669
224	0xbcd322ea	-0.025773484
225	0xbcda22f4	-0.026627995
226	0x3d0bfd16	0.03417691
227	0xbd2b531d	-0.04182731
228	0x3a0f1486	0.00054580753
229	0xbd50290c	-0.050820395
230	0xbc5fd5e2	-0.0136618335
231	0x3d22e21c	0.039766416
232	0x3cb1e007	0.02171327
233	0x3ceec97f	0.029148815
234	0x3d12c432	0.035831638
235	0x3acb9c34	0.0015534223
236	0x3c5ca61f	0.013467341
237	0x3d484485	0.04889347
238	0x3cab6821	0.020923676
239	0x3d34d541	0.044148687
240	0xbbc1c2bd	-0.005913107
241	0x3c559446	0.013035839
242	0x3bba3b36	0.005683328
243	0x3cb8dc87	0.022566093
244	0xbbfca22c	-0.007709762
245	0x3b213598	0.0024598595
246	0xbd31bdbe	-0.043393843
247	0xbc9eb6df	-0.01937431
248	0xbd030dff	-0.03199577
249	0xbc4a039a	-0.01232996
250	0x3c947850	0.018123776
251	0x3d169066	0.036758803
252	0xbcc574c3	-0.024103528
253	0xbd3307eb	-0.043708723
254	0x3d153711	0.03642947
255	0xbd0b2c42	-0.033977754

incep1.branch_5x5_2.bias f4 [24]
0	0x3c56908c	0.013095986
1	0x3b6eec23	0.0036456666
2	0xbd5c86b5	-0.053839404
3	0xbd130db8	-0.035901755
4	0x3c87d6b6	0.016581874
5	0x3c12d0c2	0.008960905
6	0x3d0e018d	0.034669448
7	0xbc10b962	-0.008833261
8	0xbca5aebf	-0.020224927
9	0xba4ff19d	-0.00079324265
10	0x3be3b8c6	0.006949517
11	0xbd31853d	-0.043339957
12	0xbce85ba2	-0.028364006
13	0x3cd245c0	0.025668025
14	0x3bfd5367	0.0077308896
15	0x3cff8ae2	0.031194154
16	0x3cbcf430	0.023065656
17	0x3cf33107	0.029686464
18	0x3b224e19	0.0024765788
19	0xbcedad24	-0.029013224
20	0xbbcb29bb	-0.006200043
21	0xbcdbcc95	-0.02683095
22	0x3aa8b1e7	0.0012870402
23	0xbbf4b2f1	-0.0074676205

incep1.branch_3x3_1.weight f4 [16, 10, 1, 1]
0	0x3e9b3361	0.30312636
1	0xbdfb6d57	-0.12276714
2	0xbd9df174	-0.07712069
3	0x3eb7726e	0.3582949
4	0xbe7a15d0	-0.24422383
5	0xbd927b14	-0.071523815
6	0xbe48531e	-0.19562957
7	0xbe95ac3c	-0.29232967
8	0x3d4b2ca2	0.049603112
9	0x3be0b254	0.006857196
10	0xbdbc97de	-0.09208654
11	0xbe9c4545	-0.30521598
12	0xbce58f4f	-0.028022436
13	0xbe97e6ce	-0.29668278
14	0x3ed97e68	0.42479253
15	0x3dad9b49	0.08476884
16	0x3c1968a1	0.009363324
17	0xbd3277a3	-0.043571126
18	0x3e882405	0.2658998
19	0xbe248cd2	-0.16069344
20	0xbe37dc01	-0.17955019
21	0x3e42e0ac	0.19031018
22	0xbe1f0cfe	-0.155323
23	0x3ea49ec2	0.32152373
24	0xbe8a6c97	-0.27035972
25	0x3e978890	0.29596376
26	0x3ddc7557	0.10764568
27	0xbdf999a4	-0.12187508
28	0x3e05021e	0.12989089
29	0x3ea5c856	0.32379407
30	0xbe02749d	-0.12739797
31	0x3d1e491a	0.038643934
32	0xbdcb6faa	-0.099334076
33	0x3ed59d62	0.41721636
34	0xbe91403a	-0.28369313
35	0x3e63a306	0.22230157
36	0xbe67bf18	-0.2263149
37	0x3dc45ad5	0.09587637
38	0xbc3bf69d	-0.011472371
39	0xbe858cc1	-0.2608395
40	0xbe73c557	-0.23805748
41	0x3e09f3c9	0.13471903
42	0xbe190277	-0.14942347
43	0xbedf64c0	-0.43631554
44	0x3eb260eb	0.34839568
45	0x3e35b902	0.17746356
46	0x3e03ee18	0.12883794
47	0x3e800e13	0.25010738
48	0x3e8cdc0c	0.27511632
49	0xbdbf60b2	-0.09344615
50	0xbe9c8bb5	-0.30575338
51	0x3d81046b	0.06299671
52	0xbdb0bee4	-0.086301595
53	0xbcf583fe	-0.029970165
54	0xbd77f3b1	-0.060535137
55	0x3d911e91	0.07085908
56	0x3dc0404d	0.093872644
57	0x3d29fded	0.041501928
58	0xbc9861bf	-0.018601296
59	0x3e80d668	0.2516358
60	0xbda82677	-0.082104616
61	0xbe2f8142	-0.17139152
62	0x3cb54b4f	0.022130636
63	0x3ee5c8ab	0.4487966
64	0xbdb7813c	-0.089601964
65	0x3e2d262f	0.16909097
66	0x3d70fd42	0.058835275
67	0x3d4867f4	0.048927262
68	0xbe5f5528	-0.21809828
69	0x3ae96e39	0.0017809338
70	0x3e3e6a11	0.18595149
71	0x3e130d08	0.1436044
72	0xbe591729	-0.21200241
73	0x3f0600b0	0.523448
74	0xbdf0d739	-0.117598005
75	0xbd5a9f46	-0.05337455
76	0x3d7c728d	0.06163268
77	0xbe3e713c	-0.18597883
78	0x3e2b018f	0.16699813
79	0xbde63f0b	-0.11242493
80	0x3ea23811	0.316834
81	0x3ea0ce38	0.31407332
82	0xbe680601	-0.2265854
83	0xbbb3303c	-0.0054683965
84	0xbd71be3b	-0.05901931
85	0xbe6de423	-0.23231559
86	0xbe92aeba	-0.2864893
87	0x3e741a58	0.23838174
88	0x3e1c2bfd	0.15251155
89	0x3e9f638c	0.31130636
90	0x3e30f939	0.17282571
91	0x3d8b12fe	0.06790732
92	0xbe3ca01f	-0.18420456
93	0xbe3f49b4	-0.1868046
94	0xbe5ca7ee	-0.21548435
95	0x3e076178	0.13220775
96	0xbe1df2ca	-0.15424648
97	0xbe1146ee	-0.14187214
98	0xbe040e85	-0.12896164
99	0xbe8ddaec	-0.27706087
100	0xbd9291b7	-0.07156699
101	0xbe3f02e4	-0.18653446
102	0x3e049455	0.12947209
103	0xbe251df6	-0.1612471
104	0xbd63153e	-0.05544018
105	0x3e02d5aa	0.12776819
106	0x3db55689	0.08854396
107	0xbe265280	-0.16242409
108	0x3e1cc9fd	0.15311427
109	0xbd43c5b4	-0.047795966
110	0xbe0ca133	-0.13733368
111	0xbe129349	-0.14313997
112	0x3e5e447e	0.21705815
113	0x3ecec762	0.40386492
114	0xbdbd8fc3	-0.09255936
115	0x3c8989a2	0.016789261
116	0xbe94fbca	-0.2909835
117	0x3d266faf	0.040633854
118	0x3e13706b	0.14398353
119	0xbdf3afd2	-0.118987694
120	0xbe20c79c	-0.15701145
121	0xbe2e080e	-0.1699526
122	0xbb8df79e	-0.004332497
123	0xbecbfd02	-0.39841467
124	0x3e54b003	0.20770268
125	0x3e8afbbc	0.27145183
126	0x3e67c3d8	0.22633302
127	0x3e943427	0.2894604
128	0x3d638659	0.055548046
129	0xbc6cbbb7	-0.014449052
130	0xbe2b69f2	-0.16739634
131	0x3d2a5e3e	0.041593783
132	0xbd14be6b	-0.03631441
133	0xbe3fafac	-0.18719357
134	0x3dc413b1	0.09574068
135	0xbe32537a	-0.17414656
136	0x3e412d3e	0.18864915
137	0x3e74b1cc	0.23895949
138	0xbe8095a7	-0.25114176
139	0x3dcfecf7	0.10152619
140	0xbdefaaea	-0.11702521
141	0xbc19d471	-0.009389029
142	0x3e7a3758	0.24435174
143	0xbe3e6cbf	-0.18596171
144	0xbdd68a09	-0.10475547
145	0xbd9ab38b	-0.07553776
146	0x3cde6a88	0.027150407
147	0x3d78209c	0.060577974
148	0xbdc76686	-0.09736352
149	0x3ea0f22a	0.31434757
150	0x3ec3e5f5	0.3826138
151	0x3e1984b6	0.14992031
152	0xbd3a43a6	-0.04547467
153	0x3e8a283d	0.26983824
154	0xbefd0170	-0.4941516
155	0x3d36eadf	0.044657584
156	0xbe421ab6	-0.18955502
157	0xbe94948b	-0.2901958
158	0xbdaec6a4	-0.085339814
159	0x3e54debf	0.20788096

incep1.branch_3x3_1.bias f4 [16]
0	0xbe75e9ae	-0.24014923
1	0xbe8ce82c	-0.27520883
2	0x3d38b2a2	0.045092233
3	0xbda8b96d	-0.08238492
4	0x3da3ae65	0.079922475
5	0x3e63bfff	0.2224121
6	0xbd0e5a32	-0.034753986
7	0xbd259418	-0.040424436
8	0xbe2770a5	-0.16351564
9	0xbe29ed08	-0.16594326
10	0x3de56a26	0.11201887
11	0xbd1c3974	-0.03814073
12	0xbe68d94d	-0.22739144
13	0x3de902f4	0.113775164
14	0xbe8580bd	-0.26074782
15	0xbe8d82eb	-0.27638945

incep1.branch_3x3_2.weight f4 [24, 16, 3, 3]
0	0xbd90bfd1	-0.07067836
1	0x3d907daf	0.07055222
2	0x3d256c7f	0.040386673
3	0x39613ac8	0.0002147957
4	0x3bea037a	0.0071415277
5	0xbcb03674	-0.02151034
6	0xbd02eb1b	-0.031962495
7	0x3d0d6b2b	0.03452603
8	0xbd44396f	-0.047906335
9	0x3cb8f5b1	0.022578092
10	0x3d720940	0.059090853
11	0x3d6f34ac	0.05839984
12	0x3ca92aed	0.020650351
13	0xbd8aadec	-0.06771454
14	0xbd95af4d	-0.073088266
15	0xbd927687	-0.071515135
16	0x3d4c3fa1	0.04986537
17	0xbd6a6304	-0.057223335
18	0xbd48939f	-0.048968907
19	0xbd03b47b	-0.03215454
20	0xbd0a88ae	-0.033821754
21	0xbd9ac73e	-0.07557534
22	0x3d8d2086	0.06890969
23	0xbc2d91c4	-0.010593835
24	0x3d9cf23e	0.076633915
25	0x3ce4ac57	0.02791421
26	0xbd553ca3	-0.05205978
27	0xbc433844	-0.01191527
28	0x3c6db1aa	0.01450769
29	0x3db37670	0.087628245
30	0x3d76012b	0.060059708
31	0x3d2be56d	0.041966844
32	0xbd3c294a	-0.045937814
33	0xbc6a9bf9	-0.014319413
34	0x3d8f821a	0.07007237
35	0x3b05d5f2	0.002042171
36	0xbd999923	-0.07499912
37	0xbdb789d7	-0.08961838
38	0x3b4bc144	0.0031090537
39	0xbdbaa009	-0.091125555
40	0xbca06e35	-0.0195838
41	0xbd3fd55f	-0.046834346
42	0xbd8f303b	-0.06991621
43	0x3d451fcc	0.048126027
44	0x3d9a31b9	0.07529015
45	0xbd94327b	-0.07236191
46	0x3d880f5e	0.06643556
47	0x3d34675d	0.044043887
48	0x3cc1e2f0	0.023667783
49	0x3c4d1adc	0.012518611
50	0xbc20ca05	-0.00981379
51	0xbc7c9879	-0.015417212
52	0x3c12ed17	0.008967659
53	0x3d34ff98	0.044189066
54	0x3dfca7f5	0.12336723
55	0x3d0b1c4c	0.033962533
56	0x3d95c862	0.073136106
57	0x3d97f3ca	0.07419546
58	0xbd529758	-0.051413864
59	0x3d9ce24a	0.07660349
60	0x3c16d367	0.009205676
61	0xbd0c029d	-0.03418218
62	0xbd3fb830	-0.046806514
63	0x3d94e742	0.072706714
64	0x3e0e5962	0.13901284
65	0x3d61d142	0.055131204
66	0x3db48961	0.088152654
67	0x3cbec311	0.023286374
68	0xbcd3288c	-0.02577617
69	0xbd3b8aca	-0.045786656
70	0xbcee022d	-0.029053772
71	0xbd17e31f	-0.037081834
72	0x3d6fef16	0.05857762
73	0x3d43778a	0.047721423
74	0x3d3548dd	0.04425894
75	0x3ad19320	0.0015989281
76	0x3d6b28b5	0.057411868
77	0x3c512c9d	0.012766984
78	0x3cc03a29	0.023465233
79	0x3c332ae9	0.010935524
80	0xbd2ffa42	-0.042963274
81	0x3d4f36f1	0.050589506
82	0xbc909287	-0.017647995
83	0x3da8429b	0.08215829
84	0xbd773dc3	-0.060361635
85	0x3cb289e4	0.021794267
86	0xbc6975e8	-0.014249302
87	0xbc1e3eca	-0.009658525
88	0xbd8b9840	-0.06816149
89	0xbd512be3	-0.051067244
90	0x3d290e4a	0.041273393
91	0x3d062a34	0.03275509
92	0x3da278c0	0.079331875
93	0xbd9f6ca4	-0.077843934
94	0x3b83e11c	0.004024638
95	0x3d99cfaf	0.075103156
96	0xbda3a3e6	-0.079902455
97	0xbd99e9b7	-0.07515281
98	0x3ce57282	0.028008703
99	0x3c10c645	0.008836334
100	0xbd34b9c5	-0.044122476
101	0x3da5f27b	0.0810289
102	0x3dc20e7d	0.0947542
103	0x3d44406f	0.04791301
104	0x3da98f68	0.08279306
105	0x3d346d0f	0.04404932
106	0xbd942ffe	-0.07235716
107	0xbd64d0fe	-0.055863373
108	0xbbc9cb5d	-0.006158276
109	0xbdbdfb74	-0.092764765
110	0xbde50c9f	-0.11184048
111	0xbe1168ca	-0.1420013
112	0xbddb8bff	-0.107200615
113	0xbda7ae4e	-0.08187543
114	0x3d1798fc	0.03701113
115	0xbd9e592c	-0.07731852
116	0xbcb2ce11	-0.021826776
117	0xbd2da9d5	-0.042398293
118	0x3d1a359f	0.037648793
119	0x3a444266	0.0007486701
120	0x3c3bfd0c	0.011473905
121	0xbb507afc	-0.0031811586
122	0xbc526e13	-0.012843627
123	0x3a30088e	0.0006715142
124	0x3bea4d98	0.007150363
125	0x3d6ed076	0.058304273
126	0x3babb8d9	0.0052405414
127	0xbd541bc9	-0.05178431
128	0x3d252372	0.040317006
129	0xbd1538dc	-0.03643118
130	0x3d36ba7c	0.04461144
131	0x3d2345c1	0.039861444
132	0x3c95df95	0.018295089
133	0xbcf40193	-0.029785907
134	0x3d6e4860	0.05817449
135	0x3da2b36f	0.079443805
136	0x3d82bf63	0.0638416
137	0x3d9d2aed	0.07674203
138	0xbd9615a2	-0.07328345
139	0xbd9b7e2f	-0.07592427
140	0xbd91c6b2	-0.07117976
141	0x3d81c503	0.06336405
142	0xbd60e55f	-0.054906245
143	0xbdaa5751	-0.083174355
144	0xbd9e983b	-0.077438794
145	0xbd960917	-0.073259525
146	0x3ca8b265	0.020592878
147	0x3b5e3254	0.003390451
148	0x3c839ef5	0.016067008
149	0xbd868366	-0.06568031
150	0xbd884d34	-0.0665535
151	0xbd965bfd	-0.07341764
152	0x3d9e8413	0.07740035
153	0xbd20a142	-0.039216287
154	0x3d6c1caa	0.057644524
155	0x3d4bb2ea	0.049731173
156	0x3dcdb7a7	0.100447945
157	0x3ccc2d16	0.024923842
158	0x3d0d937c	0.03456448
159	0xbd341eae	-0.04397457
160	0x3db47f90	0.08813393
161	0x3d5bf420	0.053699613
162	0xbd6c2dde	-0.05766093
163	0x3d621b08	0.05520156
164	0x3d817ad1	0.063222535
165	0x3d03b96f	0.032159265
166	0xbd127d6c	-0.035764143
167	0x3d7cc306	0.061709426
168	0xbd9879b0	-0.07445085
169	0xbd2c2ea9	-0.042036686
170	0xbd76a610	-0.060216963
171	0xbdb2efd6	-0.08737151
172	0xbddd720d	-0.10812769
173	0xbdc150c5	-0.09439234
174	0x3d730569	0.05933133
175	0xbd45c6bf	-0.048285242
176	0xbdb65766	-0.08903389
177	0x3d8c990e	0.0686513
178	0xbcfc7d58	-0.030821487
179	0x3d342813	0.04398353
180	0x3da3e422	0.08002497
181	0x3cab00c9	0.020874398
182	0x3d62ae03	0.05534173
183	0xbc9b8939	-0.018986331
184	0x3c89f89a	0.016842175
185	0x3b6d6e21	0.0036228972
186	0x3ced2f89	0.02895333
187	0x3db0adc2	0.08626892
188	0x3b9ce90c	0.0047885235
189	0x3da028fb	0.078203164
190	0x3c8083dd	0.015687877
191	0xbd3917b6	-0.045188628
192	0xbd86fa1a	-0.06590672
193	0x3d05572c	0.032553837
194	0x3d0699d3	0.032861542
195	0x3d298dc7	0.041394975
196	0xbd51b921	-0.051201943
197	0xbda6b16c	-0.08139309
198	0x3ca9b203	0.020714765
199	0x3cab2139	0.020889865
200	0xbcc6bf86	-0.024261247
201	0x3d2a20ef	0.041535314
202	0xbd0c89a9	-0.03431097
203	0xbc8d5e37	-0.01725684
204	0xbd90374d	-0.07041798
205	0xbd7cdddb	-0.061735015
206	0x3ce7c978	0.02829431
207	0xbcaa6d11	-0.02080396
208	0xbe345434	-0.17610246
209	0xbd2d4a8c	-0.04230742
210	0xbe1160d8	-0.14197099
211	0xbde44706	-0.11146359
212	0xbd92f89e	-0.07176326
213	0xbd2f90ac	-0.04286258
214	0xbe01901e	-0.12652633
215	0xbc37d7f6	-0.011220923
216	0x3d85fba5	0.06542138
217	0xbd80bb6e	-0.062857494
218	0xbdb3d727	-0.087812714
219	0x3d85d03d	0.06533859
220	0xbc391a3f	-0.011297761
221	0xbd6a68f7	-0.05722901
222	0xbd99c316	-0.07507913
223	0x3d4e8b1d	0.050425638
224	0x3d5c18ca	0.05373458
225	0x3d79668b	0.06088881
226	0xbc03b1d3	-0.008038002
227	0xbc66845f	-0.014069646
228	0xbd81a475	-0.06330196
229	0x3b73694d	0.0037141622
230	0x3d1a7f4c	0.037719056
231	0x3da643c6	0.081183955
232	0xbd8dfefd	-0.06933401
233	0x3d2b463b	0.041815024
234	0x3d3c0fda	0.045913555
235	0xbd0a11a3	-0.033708226
236	0x3b64afd7	0.0034894848
237	0xbc1e716b	-0.009670596
238	0x3d56427b	0.052309494
239	0xbd6dfd74	-0.05810304
240	0xbc1619b8	-0.009161405
241	0x3c5844a9	0.013199964
242	0xbd879901	-0.0662098
243	0xbdb82ee7	-0.08993321
244	0xbc30cc9a	-0.010790968
245	0xbd994f33	-0.07485809
246	0xbd6bc218	-0.05755815
247	0xbd8341ee	-0.064090595
248	0xbd8f90d0	-0.07010043
249	0x3bad0456	0.005280058
250	0xbd7bf336	-0.06151124
251	0xbd823773	-0.06358232
252	0xbbd525ac	-0.006504735
253	0x3cb8e31d	0.022569234
254	0x3dc3de5b	0.09563895
255	0x3df740a8	0.12072879

incep1.branch_3x3_2.bias f4 [24]
0	0xbd45b66d	-0.048269678
1	0xbd888f5e	-0.0666797
2	0x3ccbc18e	0.024872568
3	0xbd5f759b	-0.054555517
4	0xbd58391c	-0.05278884
5	0xbd55645e	-0.05209767
6	0x3d639eda	0.055571415
7	0x3b8750c8	0.004129503
8	0x3d846fe5	0.06466655
9	0x3d62aded	0.05534165
10	0x3d672bab	0.05643813
11	0xbd9ce4e1	-0.07660843
12	0xbd91c025	-0.07116727
13	0x3cdb5514	0.026773967
14	0xbd6f0625	-0.05835547
15	0x3c3ddb5f	0.011587947
16	0xbd04a04e	-0.03237944
17	0xbc379ecc	-0.011207294
18	0x3d1356eb	0.035971563
19	0xbd92880f	-0.07154857
20	0x3cf0612b	0.029343208
21	0xba849c5b	-0.0010117398
22	0xbd3b905c	-0.04579197
23	0x3d686f49	0.056746755
