resource/onnx/skill_ready_cls.onnx (onnx, 460895 bytes, 34 tensors)

conv1.weight f4 [10, 3, 5, 5]
0	0x3cf1bab6	0.029507976
1	0xbc554d1e	-0.013018874
2	0x3e0e8c37	0.13920675
3	0xbc1b6458	-0.009484373
4	0x3e270851	0.16311766
5	0xbd8ceb9f	-0.06880879
6	0x3dcde2ae	0.10053001
7	0xbd174d8a	-0.03693918
8	0xbd1522a3	-0.036409985
9	0x3dec2748	0.1153093
10	0x3d2183df	0.039432403
11	0xbd310238	-0.043215007
12	0xbdb81c87	-0.08989816
13	0x3d7fe49b	0.062473875
14	0x3da8fee4	0.082517415
15	0xbc937836	-0.018001657
16	0xbda9c7e4	-0.08290079
17	0x3d225588	0.03963235
18	0xbda361ee	-0.07977663
19	0xbdc6da9f	-0.097096674
20	0x3d689f41	0.0567925
21	0xbe0af720	-0.13570833
22	0xbc35532a	-0.011067191
23	0x3d0da46e	0.03458064
24	0xbcf63a8c	-0.030057214
25	0x3d89f088	0.06735331
26	0x3d573895	0.052544195
27	0x3e04a944	0.12955195
28	0xbbdfd08d	-0.006830281
29	0x3e14a05f	0.14514302
30	0x3d230f6a	0.039809622
31	0xbd93d10a	-0.072176054
32	0x3dcec927	0.100969605
33	0x3d2d8042	0.042358644
34	0xbad2d951	-0.0016086494
35	0xbd3d0341	-0.04614568
36	0xbdae346e	-0.08506094
37	0x3d9dd821	0.07707239
38	0x3e0a7502	0.13521197
39	0xbd6558fa	-0.055993058
40	0xbd935e80	-0.07195759
41	0x3c05750e	0.008145584
42	0xbe1ca937	-0.15298925
43	0xbc92f61a	-0.017939616
44	0xbda163dd	-0.078803755
45	0xbdcce8b5	-0.10005323
46	0xbe30a47d	-0.17250247
47	0xbbb4c877	-0.0055170613
48	0xbc908f3a	-0.01764642
49	0x3bdd0dce	0.0067460304
50	0x3e44b42f	0.1920936
51	0x3c80a05c	0.015701465
52	0xbd68b786	-0.056815647
53	0xbdae9f6e	-0.085265025
54	0xbd13881f	-0.036018487
55	0x3de25262	0.110508695
56	0xbd30bf2a	-0.04315106
57	0xbd04d443	-0.03242899
58	0x3d5bc318	0.053652853
59	0xbdcfc76f	-0.10145461
60	0x3d0d6a25	0.034525055
61	0x3dc2445e	0.09485696
62	0xbd1b0f47	-0.037856366
63	0xbd4daca8	-0.050213486
64	0xbe27a00b	-0.16369645
65	0x3e14d5b1	0.14534642
66	0x3c877b64	0.01653833
67	0x3b2819cd	0.0025650144
68	0xbce91fa9	-0.02845748
69	0xbddd987e	-0.10820101
70	0x3df57f74	0.119872004
71	0x3d9665c0	0.07343626
72	0xbcabeb26	-0.020986151
73	0xbdd8af75	-0.10580341
74	0xbd4d76e9	-0.05016223
75	0x3cefb4a1	0.029260935
76	0xbd913b10	-0.070913434
77	0x3dab8472	0.08374871
78	0x3dec7a17	0.11546724
79	0x3e019d23	0.12657599
80	0xbdba19f5	-0.09086982
81	0xbb34c0e6	-0.0027580797
82	0x3e0434b3	0.12910728
83	0x3c66da6c	0.014090162
84	0xbc2987c3	-0.0103473095
85	0xbd0cd263	-0.034380328
86	0x3cc282d7	0.02374403
87	0x3dd403fe	0.10352324
88	0x3d6ca569	0.057774935
89	0xbd89a3e0	-0.0672071
90	0xbcec6092	-0.028854642
91	0x3d1cda33	0.03829403
92	0x3dbb7388	0.09152895
93	0x3dc0fc93	0.09423175
94	0xbdc48f64	-0.09597662
95	0xbd24eb8a	-0.04026369
96	0x3dc365e1	0.09540916
97	0x3c944c85	0.018102894
98	0x3df3be52	0.11901535
99	0x3d63837c	0.055545315
100	0xbd60550a	-0.0547686
101	0xbdcf1d16	-0.101129696
102	0x3c96070f	0.018313913
103	0x3d78f24a	0.06077794
104	0x3c3dfc96	0.011595866
105	0xbde099df	-0.109668486
106	0xbd868b74	-0.06569567
107	0x3cdbe97a	0.026844729
108	0xbe10f7cc	-0.14157027
109	0xbd9ce0da	-0.076600745
110	0x3d05c657	0.032659855
111	0x3bb45f35	0.0055045136
112	0xbda7ec29	-0.08199341
113	0xbde2e0e6	-0.11078052
114	0x3d017b9d	0.031612027
115	0xbdd9a4b3	-0.10627117
116	0xbc2f1f9a	-0.010688687
117	0xbdca31b9	-0.09872765
118	0xbe2de0a8	-0.16980231
119	0xbe30fd08	-0.17284024
120	0xbdaaf52d	-0.08347545
121	0xbe0254a3	-0.12727599
122	0x3d7cb3c0	0.06169486
123	0x3d0b479f	0.03400385
124	0xbd24d5e5	-0.04024305
125	0xbd61ea24	-0.055154935
126	0x3bc0594a	0.005870019
127	0xbd5896a5	-0.05287804
128	0x3e0203e9	0.12696804
129	0x3d81e994	0.063433796
130	0x3dea3aec	0.1143702
131	0x3dca7047	0.098846965
132	0x3d9fbe47	0.077999644
133	0x3e0103d1	0.12599112
134	0x3d73c634	0.059515193
135	0x3dc24468	0.09485704
136	0xbc76423c	-0.01503044
137	0x3da46061	0.08026195
138	0x3af2a44a	0.0018512097
139	0x3d6d32cd	0.057909776
140	0x3c005c61	0.007834525
141	0x3db9d597	0.09073942
142	0xbd81b119	-0.06332607
143	0x3dd59f5b	0.10430785
144	0xbc99fb96	-0.018796723
145	0x3d983661	0.07432247
146	0xbbff608c	-0.0077934917
147	0xbc35a205	-0.011085992
148	0xbd02dda9	-0.031949673
149	0xbc8a1ed6	-0.016860407
150	0x3bfe11ed	0.0077536018
151	0x3db9b3c4	0.09067491
152	0xbbfda530	-0.007740639
153	0x3d9a0bcb	0.075217806
154	0x3d66f2c0	0.05638385
155	0x3dde1995	0.10844723
156	0xba488f4e	-0.00076507486
157	0x3dceb1ac	0.10092482
158	0x3db3b72d	0.087751724
159	0xbae074de	-0.0017124673
160	0xbdb4c9c2	-0.08827545
161	0xbdae9f76	-0.085265085
162	0x3c50e79b	0.012750532
163	0x3d2cd5be	0.042196028
164	0x3d48be7a	0.049009778
165	0xbc973a08	-0.018460289
166	0xbc8a9433	-0.01691637
167	0x3dfeff85	0.1245108
168	0x3e00d29e	0.12580344
169	0xbd95bcd4	-0.07311407
170	0xbda05e8b	-0.07830533
171	0xbd241a36	-0.04006406
172	0x3d390e3f	0.0451796
173	0x3dd46b60	0.10372043
174	0x3dae0021	0.08496118
175	0xbd9a0bb2	-0.07521762
176	0x3d925625	0.07145337
177	0xbc7b7b02	-0.015349152
178	0xbcc8757d	-0.024470085
179	0xbd78d307	-0.060748126
180	0x3d27689f	0.04087126
181	0xbd8ccebb	-0.06875368
182	0x3deba98d	0.115069486
183	0xbd345ca2	-0.044033654
184	0xbdf01d7c	-0.11724374
185	0xbd539779	-0.051658127
186	0x3da99442	0.08280231
187	0x3dcf1c26	0.10112791
188	0xbcdb61f4	-0.026780106
189	0xbd48cf50	-0.049025834
190	0xbdd7a8f7	-0.10530274
191	0x3db776d6	0.08958213
192	0x3dbcc460	0.09217143
193	0xbd8c6ac5	-0.06856302
194	0xbda763bd	-0.081733204
195	0xbd9cb437	-0.07651561
196	0x3d7a19f5	0.06105991
197	0x3c8ccc91	0.017187389
198	0xbc5d7e0f	-0.013518824
199	0x3d302932	0.043008037
200	0xbdd01fcb	-0.10162314
201	0x3d9dcfb0	0.07705629
202	0x3c83c5f7	0.016085608
203	0x3c1748d4	0.009233672
204	0x3d728e1b	0.059217554
205	0xbddb654a	-0.10712679
206	0xbdc3f8c9	-0.095689364
207	0xbde78030	-0.11303747
208	0xbd29ff23	-0.041503083
209	0xbde7e5a0	-0.11323094
210	0xbdbe340f	-0.09287273
211	0x3ba0cd7a	0.004907307
212	0xbde804f5	-0.113290705
213	0xbc574441	-0.013138832
214	0x3bde1be9	0.0067782295
215	0x3d76912b	0.060197037
216	0xbde0b1b6	-0.10971396
217	0xbc8e04db	-0.0173363
218	0xbde63eaa	-0.11242421
219	0xbd4edb06	-0.050501846
220	0xbc785e2d	-0.015159172
221	0xbd1734c2	-0.03691555
222	0xbd5ebd8a	-0.054379977
223	0xbe078690	-0.13234925
224	0xbd949066	-0.07254104
225	0xbdb17dd1	-0.08666576
226	0x3ce1524f	0.027505068
227	0xbd411752	-0.04714138
228	0xbddbf365	-0.10739783
229	0xbda12b9b	-0.07869645
230	0xbded4ec0	-0.11587286
231	0x3d83c70a	0.06434448
232	0xbd6bd80b	-0.05757908
233	0x3d8e806c	0.06958088
234	0x3dd5e02c	0.10443148
235	0xbd576851	-0.05258972
236	0xbda16082	-0.078797355
237	0xbdb4fc6e	-0.0883721
238	0xbdc1676c	-0.09443554
239	0x3d98b50f	0.07456409
240	0x3ce7df2a	0.028304655
241	0x3c56430a	0.013077507
242	0x3d7c42dd	0.061587203
243	0xbd265f98	-0.04061851
244	0xbd9e2721	-0.07722307
245	0xbdb8ff40	-0.0903306
246	0x3bd8c605	0.0066154026
247	0xbd492980	-0.049111843
248	0x3c5d862b	0.013520758
249	0x3d00e633	0.031469535
250	0xbd815e8d	-0.06316862
251	0xbce03ad1	-0.027371796
252	0x3ce65c16	0.028120082
253	0x3cd3b88d	0.025844837
254	0xbd21bc20	-0.03948605
255	0x3d22632a	0.03964535

conv1.bias f4 [10]
0	0x3c30b969	0.010786393
1	0xbbe692b0	-0.0070365295
2	0x3db138ba	0.08653398
3	0xbd07da4b	-0.033167165
4	0x3e14343e	0.14473054
5	0x3d8d14a9	0.06888706
6	0xbda00e2e	-0.078152046
7	0xbce62882	-0.028095488
8	0xbdc737a8	-0.097274125
9	0xbdddf140	-0.108370304

conv2.weight f4 [20, 88, 5, 5]
0	0xbcbfaf38	-0.02339898
1	0xbcc75e33	-0.02433691
2	0xbcfee51b	-0.031115105
3	0xbd2050d5	-0.039139587
4	0xbcc9f126	-0.024651121
5	0xbabd81e6	-0.0014458268
6	0xbc806c89	-0.015676754
7	0x3b0a957e	0.0021146233
8	0xbce371c5	-0.02776421
9	0xbd147548	-0.03624466
10	0xbc6a783c	-0.014310893
11	0xbcce2b38	-0.025167093
12	0xbcfedfc6	-0.031112563
13	0xbc4a048e	-0.0123301875
14	0xbd21c1e5	-0.039491553
15	0xbc6cd836	-0.014455846
16	0xbc8c2077	-0.017105324
17	0x3c101fda	0.0087966565
18	0xbd109b02	-0.035304077
19	0xbd1257fb	-0.035728436
20	0xbcba9e68	-0.022780612
21	0xbd046899	-0.032326315
22	0x3bee4574	0.007271463
23	0xbbbd1927	-0.0057708207
24	0xbcc0fec8	-0.02355899
25	0xbc975070	-0.018470973
26	0xbc8806f6	-0.016604882
27	0x39f33758	0.00046389806
28	0xbcfdef04	-0.03099776
29	0xbcf05a0d	-0.029339815
30	0xbd104497	-0.035221662
31	0xbb0b670f	-0.0021271145
32	0xbc916917	-0.017750306
33	0x3adaf238	0.0016704267
34	0x3c107a27	0.008818186
35	0xbcfb6685	-0.030688534
36	0xbb302148	-0.0026875306
37	0xbbc64bf9	-0.006051537
38	0xbcfefe90	-0.031127244
39	0x3c3a5b52	0.0113743115
40	0x3ba67855	0.0050802627
41	0xbc99e569	-0.01878615
42	0xbcd47e37	-0.02593909
43	0xbc887fb6	-0.01666246
44	0xbcd6a3b4	-0.026201107
45	0xbc8956f3	-0.016765093
46	0xbc91ccc4	-0.017797835
47	0x3b99c07d	0.004692136
48	0xbb6ea2d2	-0.0036412966
49	0x3c3cf9b0	0.0115341395
50	0xbb68b261	-0.0035506713
51	0x3c84876e	0.01617786
52	0xba6056b4	-0.00085578416
53	0x3cbaf487	0.022821678
54	0x3b3f4a3d	0.0029188537
55	0x3c8e7df3	0.017394042
56	0xbc76e076	-0.015068164
57	0xba5134ff	-0.00079806143
58	0xbb806c02	-0.0039191255
59	0xbc333843	-0.010938707
60	0xbc660afa	-0.014040703
61	0x3beb3d41	0.007178933
62	0x3a2e1f1f	0.00066422106
63	0x3cb34220	0.021882117
64	0x3b99f9e4	0.0046989787
65	0xbc61b9f9	-0.0137772495
66	0xba662361	-0.00087790756
67	0x3c089790	0.008336917
68	0x3c82d3fd	0.015970225
69	0xbb961866	-0.0045805452
70	0x3ba02334	0.004887009
71	0x3c61fa21	0.013792546
72	0xbc6b242b	-0.014351885
73	0xbaba4933	-0.0014212489
74	0xbbcbc512	-0.006218561
75	0x3c0488d3	0.008089262
76	0x3cd8d63d	0.026469344
77	0xbb8fe9ed	-0.0043919
78	0x3c44001b	0.011962916
79	0x3c86a64f	0.016436724
80	0xbb54551a	-0.0032399357
81	0x3b608523	0.0034259043
82	0xbbc98db5	-0.006150926
83	0xbba31b72	-0.004977637
84	0x3d0591c7	0.032609727
85	0x3cf407b0	0.029788822
86	0xbc2b32b6	-0.010449102
87	0x3b06d654	0.0020574527
88	0x3c44a870	0.012003049
89	0x3ab40d18	0.0013736812
90	0x3b433cd5	0.0029790897
91	0x3c970e9f	0.018439589
92	0xbb6bfaa7	-0.0036007555
93	0x3be945eb	0.0071189306
94	0xbbbbdd7f	-0.0057331915
95	0x3bd44027	0.006477374
96	0x3c90fe82	0.017699484
97	0x3c2fe067	0.010734654
98	0x3c7332a8	0.01484362
99	0xbb2046fa	-0.0024456368
100	0x3b5868f7	0.0033021548
101	0xbc9903f0	-0.018678635
102	0xbc80aec9	-0.015708344
103	0xbcd29a72	-0.02570841
104	0xba0b067c	-0.00053033954
105	0xbc888cbd	-0.016668672
106	0x3b2e07ea	0.002655501
107	0xbc85c48f	-0.016329078
108	0xbbda6b11	-0.0066655953
109	0x3af20211	0.0018463751
110	0xbc24c0f3	-0.010055768
111	0xbc5f6dee	-0.013637049
112	0xb9c28f6a	-0.00037109415
113	0xb9cdb52d	-0.00039235633
114	0xbc7b414a	-0.01533539
115	0x3b5d5c23	0.0033776842
116	0xbcae4d98	-0.021277234
117	0x3c0fa59b	0.008767511
118	0xbba9c0a5	-0.0051804357
119	0x3c5bb577	0.013409964
120	0x3c07feaf	0.008300467
121	0xbc92ebc0	-0.01793468
122	0x3bd0b0b8	0.0063687228
123	0x3c3f184e	0.0116635095
124	0xbba2acf6	-0.004964466
125	0x3c0be2e2	0.00853798
126	0x3b0dd3cb	0.002164113
127	0x3bdc2c29	0.0067191315
128	0x3b3b47a2	0.0028576632
129	0x3befbfd3	0.0073165684
130	0xbaca46e3	-0.0015432503
131	0xbc95da13	-0.018292462
132	0xbb94d334	-0.004541779
133	0xbc812dde	-0.015768941
134	0xbca9dda4	-0.02073557
135	0xbc5400f0	-0.012939677
136	0x3c739951	0.014868096
137	0x3bd31d41	0.0064426963
138	0xbccc828d	-0.024964595
139	0x3c0ca2be	0.008583723
140	0xbbe5ec3a	-0.007016686
141	0x3b4fe988	0.0031724889
142	0xbc77eb92	-0.015131848
143	0xbc071056	-0.008243641
144	0xbce6e9d6	-0.028187674
145	0x3a8ccf59	0.0010742947
146	0xbb1aed36	-0.0023639924
147	0xbcbd2a71	-0.023091527
148	0xbc9b3714	-0.018947162
149	0x3acdfff3	0.0015716538
150	0x3c714224	0.014725242
151	0x3c9afe11	0.018919976
152	0x3a94bd54	0.0011347928
153	0xbbfae1b6	-0.0076563014
154	0xbcacfafc	-0.021115772
155	0x3c793112	0.015209453
156	0x3c93326a	0.017968375
157	0xbca91c65	-0.020643422
158	0xbc1b2ae9	-0.00947068
159	0xbc0d64d0	-0.008629993
160	0x3c97bc13	0.018522298
161	0x3c4a5184	0.012348536
162	0x3c427d1a	0.011870647
163	0xbccfcd5e	-0.025366481
164	0xbc03e0e0	-0.00804922
165	0xbc8d0f72	-0.017219279
166	0xbba61396	-0.005068253
167	0xbc9bd7e2	-0.01902384
168	0x3c254a8e	0.010088576
169	0x3bec142f	0.0072045545
170	0xbba1dd5f	-0.0049397196
171	0xba184680	-0.0005808845
172	0xbc97ba43	-0.018521434
173	0x3c167dcb	0.009185265
174	0xbc11f062	-0.008907409
175	0xbcea5e9c	-0.028609566
176	0xbc95984b	-0.018261096
177	0x3c1c6e3b	0.009547765
178	0x3c8b20c3	0.016983395
179	0xbcbc67b2	-0.022998665
180	0xbc894a0f	-0.016758947
181	0xbb6bb77c	-0.003596752
182	0xbc416318	-0.011803411
183	0xbc1b8ad8	-0.009493552
184	0xbcd715c5	-0.026255498
185	0x3c037b34	0.008024979
186	0x3c7825a6	0.015145695
187	0x3b2e7bee	0.002662416
188	0xbb3b21b5	-0.0028554027
189	0xbb73f030	-0.003722202
190	0xbc23283b	-0.009958322
191	0xbadfdd92	-0.0017079583
192	0x3c8177d2	0.015804205
193	0xbcce0d0e	-0.02515271
194	0xbc55cc95	-0.013049264
195	0x3c20825e	0.009796707
196	0x3b541fc2	0.0032367562
197	0xbcaf5a9f	-0.021405516
198	0x3bb1b0c1	0.005422682
199	0x3c18c882	0.009325149
200	0x3b6fc56e	0.0036586183
201	0x3cb00181	0.021485092
202	0x3c8472de	0.016168054
203	0xbc9e274a	-0.019305844
204	0x3c8a44cb	0.016878506
205	0xbc1a77af	-0.009427949
206	0x39d66313	0.00040891077
207	0xbc800fd6	-0.015632551
208	0x3c977bde	0.018491682
209	0x3c50f7d8	0.012754403
210	0xbb8672fd	-0.004103063
211	0xbc7f58db	-0.01558515
212	0xbba9f9d8	-0.0051872544
213	0x3bed9e64	0.0072515476
214	0x3c9d32c6	0.01918925
215	0xbc49e90e	-0.012323631
216	0xbc8f80ce	-0.017517474
217	0x3bf0304e	0.007329977
218	0x3c6ea46c	0.014565568
219	0x3c1e17d3	0.009649235
220	0x3bd02de6	0.006353128
221	0x3cacb674	0.021083094
222	0x3b5f8e36	0.0034111864
223	0xbb6fddea	-0.0036600777
224	0xbba35d49	-0.0049854857
225	0xbcb8544a	-0.02250113
226	0xbc97652e	-0.018480863
227	0xbc8c823d	-0.017151946
228	0xbc6f372c	-0.014600556
229	0x3a47ac41	0.00076169154
230	0x3c24a7e1	0.010049791
231	0x3c85f76d	0.016353333
232	0xbc9c1e36	-0.019057374
233	0x3b298816	0.0025868467
234	0xbb399977	-0.0028320232
235	0xbbe825ae	-0.00708457
236	0x3c2bb9ab	0.010481278
237	0xbcac603d	-0.021041984
238	0xbcbcad35	-0.02303181
239	0x3c88ca7d	0.016698116
240	0xbc95f5ba	-0.018305648
241	0x3c313d57	0.010817847
242	0x39a8385e	0.00032085454
243	0xbbcf99aa	-0.006335457
244	0xbc49f6c6	-0.012326902
245	0xbce7d922	-0.02830178
246	0x3a49f6e9	0.0007704334
247	0xbcb1ef5a	-0.021720577
248	0x3bd1822e	0.0063936925
249	0xbc814428	-0.01577957
250	0xbc2c5dda	-0.010520423
251	0x3bbfaf28	0.0058497377
252	0x3ca53299	0.020165728
253	0x3c8d3f4d	0.017242098
254	0xbbd3f2cf	-0.006468154
255	0x3c592a17	0.013254664

conv2.bias f4 [20]
0	0xbc97241b	-0.018449834
1	0x3b0f9d2c	0.002191375
2	0xbc14b427	-0.009076155
3	0xbb35eeaf	-0.0027760675
4	0xbb98ef7f	-0.004667222
5	0xbc69c789	-0.014268764
6	0xba98d4c1	-0.0011660085
7	0xbbcd3ebe	-0.006263583
8	0xbc791974	-0.015203822
9	0x3b3dad94	0.0028942572
10	0x3c94141f	0.018076
11	0xbb142c80	-0.0022609532
12	0xbc5c8fa7	-0.013461984
13	0x3bed8b0c	0.0072492417
14	0xbca28aaa	-0.01984151
15	0xbbd1a52a	-0.006397863
16	0xbc44bf66	-0.012008524
17	0x3be71c0c	0.007052904
18	0x3acf2a11	0.0015805383
19	0xbc81ca65	-0.01584358

incep1.branch_1x1.weight f4 [16, 10, 1, 1]
0	0x3d9fd44b	0.078041635
1	0xbe95611c	-0.2917565
2	0x3d225dbe	0.03964018
3	0xbe99133d	-0.2989749
4	0x3e8fb044	0.28064167
5	0xbda9c9e6	-0.08290462
6	0xbc6fb1c0	-0.014629781
7	0xbe9f773b	-0.31145653
8	0x3dfb95f4	0.12284461
9	0x3e8fc63b	0.28080925
10	0xbe369b95	-0.17832787
11	0xbe737aaf	-0.23777269
12	0x3e0d0dd8	0.13774812
13	0xbe830e2d	-0.25596753
14	0xbe8aaef0	-0.27086592
15	0xbd119e57	-0.035551395
16	0x3e12e745	0.14346035
17	0xbdfd75e4	-0.123760015
18	0xbd4a9979	-0.04946277
19	0x3e5a86d7	0.213405
20	0xbe6be72e	-0.23037407
21	0xbe6b78ac	-0.22995251
22	0x3e20c262	0.15699151
23	0xbe80492d	-0.2505583
24	0x3bf16efd	0.007367967
25	0x3e67bc86	0.2263051
26	0xbd15ad0e	-0.03654199
27	0xbdbc5a35	-0.09196893
28	0xbe96befe	-0.2944259
29	0xbe9b1be0	-0.30294704
30	0x3e469856	0.19394049
31	0x3d880c63	0.066429876
32	0x3e59bea2	0.21264127
33	0xbe7ed5ec	-0.24886292
34	0x3e914d8f	0.28379485
35	0x3e001bbd	0.12510581
36	0x3d1d73fa	0.038440682
37	0x3de24817	0.11048906
38	0xbb41e2f9	-0.002958475
39	0xbe39c9e0	-0.18143415
40	0xbebf3ed8	-0.37352633
41	0x3e83fce7	0.25778887
42	0xbe3d9f47	-0.1851779
43	0x3e78b603	0.24288182
44	0xbe6050f6	-0.21905884
45	0x3da70d82	0.08156873
46	0xbd775015	-0.060379107
47	0xbd725682	-0.05916453
48	0xbe5a3aa1	-0.21311428
49	0xbe38aacd	-0.18033905
50	0x3e5ad76b	0.21371238
51	0x3e9600b3	0.29297408
52	0xbdd7ea86	-0.10542779
53	0xbe72092a	-0.23636308
54	0x3e696e81	0.2279606
55	0x3e0a4f6a	0.13506857
56	0xbd719c2b	-0.058986824
57	0xbd846722	-0.064649835
58	0x3e21be4f	0.15795253
59	0xbe9feb24	-0.31234086
60	0xbe863e3d	-0.2621936
61	0xbd31b6c8	-0.043387204
62	0xbe981158	-0.29700732
63	0xbe1c44a7	-0.15260564
64	0xbe84ec1b	-0.25961384
65	0xbc713182	-0.014721276
66	0x3e16babf	0.14719675
67	0xbe47f22a	-0.19525972
68	0x3e97d9fe	0.29658502
69	0x3e5a3c16	0.21311983
70	0xbe079742	-0.13241294
71	0x3df78d3e	0.12087487
72	0x3d5c51aa	0.05378882
73	0xbe44699a	-0.19180909
74	0x3e9be964	0.304515
75	0xbb2b2cbb	-0.002611919
76	0x3e6d59a2	0.23178723
77	0xbd001946	-0.031274103
78	0xbe646e81	-0.22307779
79	0xbdc921fc	-0.09820935
80	0xbed1525b	-0.40883145
81	0xbe7447c3	-0.238555
82	0xbe8b947d	-0.27261725
83	0x3e7359ff	0.237648
84	0xbdfd1337	-0.123571806
85	0xbe83bbe7	-0.25729296
86	0xbe807f75	-0.25097242
87	0xbcc03d1c	-0.02346664
88	0xbdc1430b	-0.094366156
89	0xbdf32be8	-0.11873609
90	0xbe74b591	-0.23897387
91	0xbdb9512e	-0.09048687
92	0xbe8826a1	-0.26591972
93	0xbb5b037a	-0.003341882
94	0x3e5d883c	0.21634
95	0xbd6ea6b3	-0.058264446
96	0xbe85f619	-0.2616432
97	0xbc6ce33f	-0.014458477
98	0xbe18d3ee	-0.14924595
99	0x3ca77bd2	0.020444784
100	0x3e309309	0.1724359
101	0xbd68326d	-0.056688715
102	0x3e248972	0.16068056
103	0x3d8bf182	0.06833173
104	0xbcc89574	-0.024485327
105	0xbde83b27	-0.113394074
106	0x3e1cf715	0.1532863
107	0xbc1edd0b	-0.009696255
108	0x3de47eb8	0.11156982
109	0xbd3aa527	-0.045567658
110	0x3c962fef	0.018333403
111	0x3e8a48b5	0.27008596
112	0x3d9956de	0.07487272
113	0xbe1a08a9	-0.15042366
114	0x3e824b6d	0.2544817
115	0xbe27607d	-0.16345401
116	0x3d1535c9	0.036428247
117	0xbe89e859	-0.2693508
118	0xbd80bc97	-0.06285971
119	0x3e9bc317	0.3042228
120	0x3e6faed3	0.23406534
121	0x3e9b1f1e	0.30297178
122	0xbd4d87cd	-0.050178338
123	0x3e036a61	0.12833549
124	0x3d840eab	0.0644811
125	0xbe8b54a6	-0.2721302
126	0x3df25951	0.11833442
127	0xbe917e40	-0.28416634
128	0x3d80609c	0.06268427
129	0xbe41a179	-0.18909253
130	0x3e0f3083	0.1398335
131	0xbe9acd4c	-0.30234754
132	0xbdf74990	-0.12074578
133	0xbe8d3a1a	-0.2758339
134	0xbe616257	-0.2201017
135	0x3df760c3	0.12079003
136	0x3d39b1ee	0.045335703
137	0xbe971ee6	-0.2951576
138	0x3c2f12c7	0.010685629
139	0x3d429404	0.04750444
140	0xbe2cc138	-0.16870582
141	0x3ce1157d	0.027476067
142	0x3dd8212b	0.10553201
143	0x3dab1422	0.083534494
144	0xbc82aa54	-0.01595036
145	0x3e7e1e50	0.24816251
146	0x3e4ed384	0.20197874
147	0x3d7a6315	0.06112965
148	0x3d36f977	0.044671502
149	0x3e42540d	0.18977375
150	0x3d39d4c8	0.04536894
151	0x3e36ca6e	0.17850658
152	0xbeabca48	-0.33552766
153	0x3e1bbf62	0.15209725
154	0x3e44c3b7	0.19215284
155	0xbcb107a6	-0.021610092
156	0x3de0724c	0.109593004
157	0xbe34016b	-0.17578666
158	0xbe6e04eb	-0.23244064
159	0x3d392d55	0.045209248

incep1.branch_1x1.bias f4 [16]
0	0x3e4f3877	0.20236383
1	0x3e085c74	0.13316518
2	0xbe4f7887	-0.20260821
3	0xbe815c36	-0.25265664
4	0x3e450ea6	0.19243869
5	0x3e7ae819	0.245026
6	0xbd92fd1f	-0.07177185
7	0x3e8ba039	0.27270678
8	0xbdcb9fac	-0.09942564
9	0x3d351473	0.044208955
10	0xbe428755	-0.18996938
11	0xbdc327b8	-0.0952906
12	0x3e609993	0.21933584
13	0xbd87d473	-0.06632318
14	0x3e1e0ec9	0.15435328
15	0xbd4eea7f	-0.0505166

incep1.branch_5x5_1.weight f4 [16, 10, 1, 1]
0	0xbe846837	-0.2586076
1	0x3c0e6561	0.008691163
2	0x3e18ca8c	0.14921016
3	0x3d3dddae	0.04635399
4	0xbe31fbcd	-0.1738121
5	0xbe502363	-0.20325999
6	0xbd58198a	-0.05275873
7	0xbdc50d58	-0.09621686
8	0x3e895fca	0.26830894
9	0xbe9afbfe	-0.3027038
10	0x3dd33ac9	0.10313947
11	0xbdd53ca0	-0.10411954
12	0x3e8a0023	0.2695323
13	0x3df6fd8a	0.120600775
14	0xbe8f4104	-0.2797929
15	0xbe187e58	-0.14891946
16	0xbd2ee9d3	-0.04270346
17	0x3e5d347c	0.21602052
18	0x3e346742	0.17617515
19	0x3e0a8901	0.13528825
20	0x3e409578	0.18807018
21	0x3e8f3b66	0.27975005
22	0xbe63070a	-0.22170654
23	0x3cfa3c20	0.030546248
24	0x3aef831e	0.0018273329
25	0xbe5764bf	-0.21034525
26	0x3e8d01be	0.27540392
27	0xbe038f74	-0.12847692
28	0x3d7045aa	0.058660187
29	0x3d6c132d	0.057635475
30	0x3e840b11	0.25789693
31	0xbe3c4d59	-0.18388881
32	0x3e7c9c39	0.24668969
33	0x3d90ff15	0.07079903
34	0x3d84c78e	0.064833745
35	0x3d2eed92	0.042707033
36	0xbdbeddc2	-0.09319641
37	0x3ea1bcc1	0.3158932
38	0xbe122644	-0.1427241
39	0x3d50969d	0.050924886
40	0xbe03db2f	-0.1287658
41	0xbe4223fd	-0.18959041
42	0xbe54e2c8	-0.20789635
43	0xbd1c1114	-0.038102224
44	0xbd8d050c	-0.06885728
45	0xbe9d2ac0	-0.30696678
46	0x3aeb4139	0.0017948515
47	0xbe8cc62f	-0.27494952
48	0x3e503c24	0.20335442
49	0x3e375bb5	0.17906077
50	0xbdff6cb5	-0.12471906
51	0xbe89f701	-0.26946262
52	0x3d076f10	0.0330649
53	0x3da63dea	0.08117278
54	0x3e3e1c5d	0.18565507
55	0xbd877b32	-0.066152945
56	0x3be97b6b	0.0071253083
57	0x3dfaf074	0.12252894
58	0xbc405335	-0.011738588
59	0x3e6542ec	0.2238881
60	0xbec29ce8	-0.38010335
61	0xbe10bddc	-0.14134926
62	0x3d94207c	0.072327584
63	0xbe22ff8b	-0.15917794
64	0x3ea90d82	0.33018118
65	0xbe7bd4e5	-0.24592932
66	0xbd1807a6	-0.03711667
67	0xbba18458	-0.0049291067
68	0x3e2a3d7c	0.16625017
69	0x3e1dabbc	0.15397543
70	0x3ef8f9d6	0.4862811
71	0x3c940f5f	0.018073736
72	0x3da41669	0.08012087
73	0x3e2dd49d	0.16975637
74	0x3eab8854	0.33502448
75	0x3e6d601d	0.23181196
76	0x3d9f4587	0.07776933
77	0x3e87ff44	0.2656194
78	0xbea40b3f	-0.3203983
79	0x3e90cff6	0.28283662
80	0x3df4fa1a	0.119617656
81	0xbea61462	-0.32437426
82	0x3e637b97	0.22215115
83	0xbbd346fc	-0.006447671
84	0xbbd4704b	-0.006483113
85	0xbdf0a6f6	-0.11750595
86	0xbd8740fe	-0.06604193
87	0x3bdfe507	0.006832722
88	0xbe9364a1	-0.2878771
89	0x3ea52630	0.32255697
90	0x3eaf1218	0.34193492
91	0xbae71a9f	-0.0017631835
92	0xbd699b42	-0.05703283
93	0xbe894fda	-0.26818734
94	0xbd4a753c	-0.04942821
95	0x3e94dfa4	0.29076874
96	0xbeaceeaf	-0.3377585
97	0x3ea31201	0.31849673
98	0xbdc8922b	-0.09793504
99	0x3e99c5e1	0.30033782
100	0x3e87a687	0.26494238
101	0xbe4f3dba	-0.2023839
102	0x3ea28e2a	0.31749088
103	0xbd4bc297	-0.049746122
104	0x3e8c8da2	0.27451807
105	0x3e4ecdda	0.20195714
106	0xbe7383de	-0.23780772
107	0x3df23996	0.1182739
108	0x3e529e19	0.20568122
109	0xbd4fcc92	-0.050732203
110	0x3e92f1d3	0.28700122
111	0x3e441233	0.19147567
112	0x3e4bcc87	0.1990224
113	0x3e0dc0ca	0.13843074
114	0x3dc5e979	0.09663672
115	0x3e8ddcaa	0.27707416
116	0xbe882864	-0.26593316
117	0xbe97ac7b	-0.2962378
118	0xbe618f69	-0.22027363
119	0xbe13c164	-0.14429241
120	0xbc2521a8	-0.010078825
121	0xbea23475	-0.31680647
122	0x3e95af0c	0.29235113
123	0xbe48a608	-0.19594586
124	0x3dbe9419	0.09305591
125	0xbe80c7f8	-0.25152564
126	0x3e3a58e8	0.18197978
127	0xbe8670bd	-0.26257887
128	0xbe1feb00	-0.15616989
129	0x3e4e724f	0.20160793
130	0xbe8d0215	-0.2754065
131	0xbe8d4a3d	-0.27595702
132	0xbdf7a1cf	-0.120914094
133	0x3e800445	0.25003257
134	0x3d8b083c	0.0678868
135	0xbe9e9728	-0.30974698
136	0x3d7b377c	0.06133221
137	0xbe45ee13	-0.193291
138	0x3c03fbec	0.008055668
139	0x3e8e8a6d	0.27839985
140	0x3dc24923	0.09486606
141	0xbe22286e	-0.15835735
142	0xbeabf89f	-0.3358812
143	0x3e8ddec2	0.27709013
144	0x3df1460e	0.1178094
145	0xbe642648	-0.22280228
146	0x3ea2710d	0.31726876
147	0x3e868e39	0.26280382
148	0x3e51bfd7	0.20483337
149	0x3e95a494	0.29227126
150	0xbeb4880d	-0.35260049
151	0x3be9a710	0.007130511
152	0x3e71a81b	0.23599283
153	0xbe858f16	-0.26085728
154	0xbe414499	-0.18873824
155	0xbe89d1bc	-0.26917827
156	0x3d7a61b5	0.061128337
157	0x3e1fc770	0.15603423
158	0xbccb7cf0	-0.024839848
159	0xbe9c93cf	-0.3058152

incep1.branch_5x5_1.bias f4 [16]
0	0x3e8f031f	0.2793207
1	0xbe13b412	-0.1442416
2	0x3e82b1e7	0.25526354
3	0xbe398080	-0.18115425
4	0xbd38d11f	-0.04512131
5	0x3d434b18	0.047679037
6	0xbe05818b	-0.13037698
7	0xbd90e387	-0.070746474
8	0x3cfde87b	0.030994644
9	0x3c083558	0.008313499
10	0xbe10c174	-0.14136297
11	0xbd06de98	-0.032927126
12	0x3e986939	0.2976778
13	0xbe2931be	-0.16522881
14	0x3e2b6c11	0.16740443
15	0xbdd7ea9d	-0.10542796

incep1.branch_5x5_2.weight f4 [24, 16, 5, 5]
0	0xbcbadab5	-0.022809366
1	0x3d34d8c1	0.044152025
2	0xbcba1f27	-0.022719933
3	0x3aac136a	0.0013128344
4	0xbcbc3ec3	-0.022979146
5	0x3c4b3048	0.012401648
6	0xbd270d0c	-0.040783927
7	0x3d5e54a2	0.05427993
8	0x3cd7013b	0.026245704
9	0x3d267b41	0.040644888
10	0x3d1c79b5	0.038202006
11	0x3cd98a67	0.026555253
12	0x3c8a3878	0.01687263
13	0x3d500b65	0.050792117
14	0xbca0197a	-0.019543398
15	0xbd382c3c	-0.04496406
16	0xbcf308d6	-0.0296673
17	0x3cbd850e	0.023134734
18	0x3cb850e2	0.022499505
19	0x3d019672	0.031637616
20	0xbc5fabb0	-0.013651773
21	0x3c95cfa5	0.01828749
22	0xbc3e0b37	-0.0115993535
23	0x3c66ad64	0.0140794255
24	0x3ca76526	0.020433974
25	0xbd2a494d	-0.04157381
26	0xbd218522	-0.039433606
27	0xbbf1de21	-0.007381216
28	0x3cd4eebc	0.025992744
29	0x3d41cd42	0.04731489
30	0xbca0e34e	-0.019639637
31	0xbc2abb78	-0.010420673
32	0xbbee0daf	-0.007264815
33	0xbcdc4e84	-0.026892908
34	0xbcfa2232	-0.030533884
35	0x3b96d9cc	0.0046036
36	0xbc05f49b	-0.008175994
37	0x3c0d5178	0.008625381
38	0x3c65fc5e	0.01403722
39	0xbc21503b	-0.009845789
40	0x3b52cd16	0.0032165698
41	0x3c886939	0.016651737
42	0xbd4c075c	-0.049811706
43	0x3d042ad0	0.03226739
44	0xbd1bb774	-0.03801675
45	0x3d01f5de	0.031728618
46	0xbcfeed10	-0.0311189
47	0xbb02746c	-0.0019905819
48	0x3ce0f108	0.027458683
49	0x3cceae31	0.025229545
50	0x3cd4b14b	0.025963446
51	0x3ca94105	0.020660887
52	0xbc598f4b	-0.013278793
53	0x3c95cbce	0.018285658
54	0xbc4fadc5	-0.012675707
55	0xbbc0d2ae	-0.00588449
56	0x3acbc127	0.0015545235
57	0x3b96570e	0.0045880144
58	0x3d1fe481	0.039036278
59	0x3d2de4ba	0.04245446
60	0x3d616c69	0.05503503
61	0xbc936c62	-0.017996017
62	0xbcb948c7	-0.02261771
63	0xbc89dc1c	-0.01682859
64	0xbbfc9a6b	-0.0077088377
65	0x3d002e3c	0.031294093
66	0x3c854580	0.016268492
67	0x3d930928	0.07179481
68	0x3d2bb5cd	0.041921426
69	0x3c9d80d9	0.019226478
70	0xbced0ff6	-0.028938275
71	0xbb0ab6a4	-0.0021165991
72	0x3d69f0df	0.05711448
73	0x3d4249a8	0.047433525
74	0xbccc6add	-0.0249533
75	0xbd67e1d2	-0.056611843
76	0xbcef35e8	-0.02920051
77	0xbd6d2755	-0.057898838
78	0x3a713960	0.000920197
79	0x3cd3e479	0.02586578
80	0x3c221494	0.0098926015
81	0x3b3ae6e7	0.0028518976
82	0x3ab7a24f	0.0014010164
83	0xbcdf1d50	-0.027235657
84	0x3d17537f	0.036944862
85	0xbd879cf5	-0.06621734
86	0xbcedd080	-0.029030085
87	0x3bb11660	0.0054042786
88	0xbcb8d188	-0.02256085
89	0x3c49615c	0.012291279
90	0x3ce04840	0.027378201
91	0x3c035ec0	0.008018196
92	0xbc90836c	-0.017640792
93	0x3c7bbc86	0.015364772
94	0xbc600699	-0.013673448
95	0xbafba9a8	-0.0019200342
96	0x3c80fd2a	0.015745718
97	0xbd885562	-0.066569105
98	0xbd70ed67	-0.058820155
99	0x3ceb77fe	0.02874374
100	0xbd04929e	-0.032366388
101	0xbabaef7f	-0.0014262049
102	0xbd4fd579	-0.050740693
103	0xbd4003c6	-0.0468786
104	0x3ba4082d	0.0050058574
105	0x3c85baf9	0.016324507
106	0xbcf5631c	-0.029954486
107	0x3ca9d60a	0.020731945
108	0xbccc7908	-0.024960056
109	0xbd21a149	-0.039460454
110	0xbd545567	-0.05183926
111	0x3bb411c6	0.005495283
112	0x3d156134	0.036469653
113	0xbc4dca67	-0.0125604635
114	0xbd5601a1	-0.052247647
115	0x3d30e01a	0.04318247
116	0x3c484858	0.012224279
117	0x3d3ddf09	0.04635528
118	0x3c980b77	0.018560154
119	0xbd50a5e6	-0.050939463
120	0x3ce7fa41	0.028317573
121	0xbcd634db	-0.02614825
122	0xbbd95015	-0.006631861
123	0xbc1475f5	-0.009061326
124	0x3cff96c9	0.03119983
125	0xbd8870e2	-0.06662156
126	0xbcbbaf2c	-0.022910677
127	0xbd8f3681	-0.06992818
128	0xbdaddabc	-0.08488986
129	0xbdcada41	-0.0990491
130	0xbdab4083	-0.08361914
131	0xbdb01d7c	-0.08599374
132	0xbd8f1af5	-0.069875635
133	0xbd2a662e	-0.041601352
134	0xbd9413d9	-0.07230348
135	0x3c5a4c23	0.0133238165
136	0xbd41b2dd	-0.047289718
137	0xbda36dab	-0.07979902
138	0xbd8c5144	-0.06851438
139	0xbd5751f4	-0.05256839
140	0xbd531fb1	-0.051543895
141	0xbd896759	-0.06709165
142	0xbd11563d	-0.035482634
143	0xbdaa5bb5	-0.08318273
144	0xbbb5f69d	-0.0055530802
145	0x3cb267e0	0.021778047
146	0xbb8a8cac	-0.004228195
147	0xbc8d4c99	-0.017248439
148	0xbd69f060	-0.057114005
149	0x3c10f79a	0.008848095
150	0x3cb48830	0.022037596
151	0x3c0df84c	0.008665156
152	0xbc8e75ab	-0.017390093
153	0x3cdac788	0.026706472
154	0xbcb07ca1	-0.021543803
155	0x3b1a10f6	0.0023508645
156	0x3cd9e668	0.026599124
157	0xbc96bbe4	-0.01840014
158	0xbd35b183	-0.04435874
159	0xbb0f4e5f	-0.0021866781
160	0x3b9eb6df	0.0048435773
161	0x3d106a1b	0.03525744
162	0x3d12c81d	0.035835374
163	0x3c3e65f2	0.011620985
164	0xbd6788fa	-0.056527115
165	0xbd2b9d64	-0.041898146
166	0x3cfb13e8	0.03064914
167	0xbd2499bb	-0.04018567
168	0xbc2511cb	-0.010075043
169	0xbcc86b50	-0.024465233
170	0xbd679c4b	-0.056545537
171	0xbd4d8513	-0.050175738
172	0x3c9e046b	0.019289216
173	0xbd246ff8	-0.040145844
174	0xbb91c55f	-0.0044485773
175	0xbd189d67	-0.037259486
176	0xbb0915a5	-0.0020917442
177	0x3cd7d08d	0.026344562
178	0xbce04d3c	-0.027380578
179	0x3be49ee7	0.0069769504
180	0xbcac86c7	-0.02106036
181	0xbbbb3930	-0.0057136044
182	0xbc826ffe	-0.015922543
183	0x3ce5cd34	0.02805195
184	0xbbad7ae8	-0.0052941926
185	0xbd1056a7	-0.035238888
186	0xbb018001	-0.0019760134
187	0x3c713ec2	0.014724435
188	0xbc056756	-0.008142313
189	0x3d068d58	0.03284964
190	0xbb90b816	-0.004416476
191	0xbc845585	-0.01615406
192	0x3cef119b	0.0291832
193	0x3ae34498	0.0017339168
194	0x3d4dcc50	0.050243676
195	0x3c67a8ad	0.0141393365
196	0x3d18ea1f	0.03733265
197	0x3c9fbbb4	0.019498684
198	0xbd388d73	-0.04505677
199	0xbcebef85	-0.028800735
200	0x3cc232b8	0.023705825
201	0xbcbad805	-0.022808084
202	0xbd7906a6	-0.060797356
203	0x3c2b275c	0.010446396
204	0x3cd121b1	0.02552876
205	0xbd2c6cd0	-0.04209596
206	0xbd16c1a5	-0.036805768
207	0x3cbbdf3c	0.022933595
208	0x3c85a07a	0.016311873
209	0xbaa74149	-0.0012760545
210	0xbd1e45dc	-0.03864084
211	0xbcc80224	-0.024415083
212	0xbd74411c	-0.059632406
213	0x3c6d3893	0.01447882
214	0xbce941f6	-0.028473835
215	0x3c93b745	0.018031726
216	0xbd2931c1	-0.041307215
217	0xbc12a863	-0.008951279
218	0x3c9a83c0	0.018861651
219	0xbc2c5905	-0.010519271
220	0x3d1e966b	0.03871767
221	0xbd079651	-0.033102337
222	0xbbbfdeda	-0.0058554234
223	0x3b46009d	0.0030212768
224	0x3d170e35	0.036878783
225	0xbcbc682b	-0.02299889
226	0xbd190aa7	-0.037363674
227	0xbcda81dc	-0.02667325
228	0xbceae1c4	-0.028672107
229	0xbcdff1e0	-0.027337015
230	0xbd09fbb6	-0.033687316
231	0x3d180462	0.037113555
232	0x3d35d19a	0.044389345
233	0xbc7d1b8c	-0.015448462
234	0xbc084281	-0.008316637
235	0x3c253f94	0.010085959
236	0x3c7ff3c7	0.015622086
237	0x3cde74ef	0.027155368
238	0x3d2a61b4	0.041597083
239	0xbcd8980c	-0.02643969
240	0xbbe46668	-0.0069702156
241	0xbd42ac97	-0.047527876
242	0x3bce395b	0.0062934584
243	0xbd06572b	-0.032797974
244	0xbc25b291	-0.010113374
245	0xbd238289	-0.03991941
246	0x3ca72320	0.020402491
247	0xbc9ce06b	-0.01914998
248	0xbc56426d	-0.013077361
249	0xbc2c4346	-0.010514086
250	0xbd844c6a	-0.06459887
251	0xbc98b161	-0.018639268
252	0x3bf45dd3	0.007457474
253	0xbd69a8ed	-0.057045866
254	0x3d289b26	0.041163586
255	0xbdb9d828	-0.09074432

incep1.branch_5x5_2.bias f4 [24]
0	0xbce6166b	-0.028086862
1	0xbc302063	-0.010749909
2	0xbc9804b3	-0.018556928
3	0x3d409b54	0.047023132
4	0xbcd6b83b	-0.026210895
5	0xbcd96c73	-0.02654097
6	0xbc59c4ee	-0.013291581
7	0xbbcb6d0f	-0.006208069
8	0xbc147a6b	-0.00906239
9	0x3d261520	0.04054749
10	0x3b17e3ce	0.0023176554
11	0xbc5bb4de	-0.013409821
12	0xbd5eea46	-0.05442264
13	0xbca67a6e	-0.02032205
14	0xbcb0e51b	-0.021593621
15	0xbb8bed83	-0.004270257
16	0x3d136003	0.035980236
17	0xbc7cf87b	-0.015440102
18	0xbb08a665	-0.0020851132
19	0x3d057473	0.032581758
20	0x3cc1ae82	0.023642782
21	0x3d22db0b	0.039759677
22	0x3c783bab	0.015150945
23	0xbce23ddd	-0.02761739

incep1.branch_3x3_1.weight f4 [16, 10, 1, 1]
0	0xbe8c4a1c	-0.2740029
1	0x3e1440d1	0.1447785
2	0xbe118c1f	-0.14213608
3	0x3e0cd953	0.13754778
4	0xbe377363	-0.1791511
5	0x3db8f9a6	0.09031992
6	0x3ea3bc0d	0.3197941
7	0xbea3aa6a	-0.31965953
8	0xbe3c5b8b	-0.18394296
9	0x3bc859a5	0.006114202
10	0x3dc5c7c2	0.096572414
11	0xbe1f5305	-0.15559013
12	0x3db7d9a4	0.089770585
13	0xbe05b0ed	-0.13055773
14	0xbdeffac9	-0.11717755
15	0xbd58ec92	-0.052959986
16	0xbdf7790f	-0.12083637
17	0x3e845e2d	0.258531
18	0x3da6063c	0.08106658
19	0xbd396b0b	-0.0452681
20	0x3ea61ab0	0.32442236
21	0x3e00a3d9	0.12562503
22	0x3d5d23c8	0.0539892
23	0x3eb5ee53	0.3553339
24	0x3d9ae2ea	0.07562812
25	0x3e3adf68	0.18249285
26	0x3d89da03	0.067310356
27	0xbe6f7de4	-0.23387867
28	0x3e8a9ad0	0.27071238
29	0x3ebf5280	0.3736763
30	0xbd329ad2	-0.04360468
31	0x3e55f681	0.20894815
32	0x3dc7d71d	0.097578265
33	0x3dfa35c0	0.12217283
34	0xbead568c	-0.33855093
35	0x3e075624	0.13216454
36	0xbe5ab019	-0.21356238
37	0xbe8bb61f	-0.27287385
38	0xbe74726f	-0.23871778
39	0x3e3c9b55	0.1841863
40	0xbed64156	-0.41846722
41	0xbe8af4b9	-0.27139834
42	0xbe8d7a72	-0.2763248
43	0x3d9a12fc	0.07523152
44	0x3e23b890	0.15988374
45	0xbe9929c0	-0.29914665
46	0xbbab01b3	-0.0052187084
47	0xbea2db59	-0.31807974
48	0xbe78dc17	-0.24302708
49	0x3e378268	0.1792084
50	0x3e3c2e8b	0.1837713
51	0xbc18cece	-0.00932665
52	0x3e7730c5	0.24139698
53	0xbe5a61a9	-0.21326317
54	0xbe5d0572	-0.21584108
55	0x3daa8695	0.08326451
56	0xbe97a3e3	-0.29617223
57	0x3da35213	0.07974639
58	0x3ea04136	0.31299752
59	0x3e40bbcf	0.18821643
60	0x3e908b64	0.28231347
61	0xbd831c2a	-0.06401856
62	0x3e5d5a1b	0.21616404
63	0x3d6b5362	0.057452567
64	0x3d2b71ca	0.041856565
65	0x3a623cce	0.00086302764
66	0xbe92b3fe	-0.28652948
67	0x3e5c093c	0.21487898
68	0xbe863c20	-0.26217747
69	0x3d8fbd23	0.07018497
70	0xbec947b0	-0.39312506
71	0x3d08fd10	0.033444464
72	0x3e39ee5f	0.18157338
73	0x3e17005b	0.1474623
74	0xbe99ef42	-0.30065352
75	0xbd797678	-0.060903996
76	0xbe4cc08a	-0.19995323
77	0x3e82a817	0.25518867
78	0xbe66542d	-0.22493048
79	0xbecaa4cc	-0.39578855
80	0x3c4c7a57	0.01248034
81	0x3e651cae	0.22374222
82	0x3e0e202e	0.13879463
83	0x3df7f80e	0.121078596
84	0xbe2ddae9	-0.16978039
85	0x3da2960c	0.079387754
86	0x3dcf71ae	0.101291046
87	0xbdce2236	-0.10065119
88	0x3d95b67c	0.07310197
89	0xbe98bde2	-0.2983237
90	0xbe48f6fd	-0.19625469
91	0x3d77f63f	0.060537573
92	0xbdd06952	-0.10176338
93	0x3e6bd51a	0.2303051
94	0xbe180889	-0.14847006
95	0x3dc7d076	0.09756558
96	0x3e873686	0.26408786
97	0xbe1a4806	-0.15066537
98	0x3e2f1442	0.17097571
99	0xbe6f3f5b	-0.23364012
100	0x3cd1429f	0.025544463
101	0x3e8c3420	0.27383518
102	0x3de55fd1	0.11199916
103	0xbe4517be	-0.19247338
104	0xbe9ccbc8	-0.30624223
105	0x3e9a003f	0.30078313
106	0x3e4bf0f8	0.19916141
107	0xbe6830e0	-0.22674894
108	0x3dee6b85	0.116416015
109	0xbdd00324	-0.10156849
110	0xbe6891a1	-0.22711803
111	0x3d27e2bf	0.040987726
112	0xbe5a942d	-0.21345587
113	0x3e3a5c4f	0.18199275
114	0xbe654e62	-0.22393182
115	0x3dad1c61	0.084526785
116	0xbe5d8a2a	-0.21634737
117	0xbe971f7d	-0.2951621
118	0x3d85230e	0.06500827
119	0x3e20e86b	0.1571366
120	0x3e2b4e65	0.16729124
121	0xbe5f38d2	-0.21799019
122	0x3e09f57a	0.13472548
123	0xbdb39e1d	-0.08770392
124	0x3ec444b5	0.3833367
125	0xbd6e88aa	-0.0582358
126	0xbe6513df	-0.22370861
127	0xbe8e926d	-0.2784609
128	0xbe181788	-0.14852726
129	0xbc80ff75	-0.015746811
130	0xbed08d05	-0.4073259
131	0x3e603ad2	0.21897438
132	0xbd6283e9	-0.05530158
133	0x3cff41b8	0.031159267
134	0x3dfc1f03	0.123106025
135	0x3d8d0bab	0.06886991
136	0xbbbc6dda	-0.0057504
137	0xbe59b94c	-0.21262091
138	0xbe15c4a9	-0.14625801
139	0xbe9454bd	-0.289709
140	0xbed73cb6	-0.42038506
141	0x3e970923	0.29499158
142	0x3ea0b7dd	0.31390277
143	0xbeb6ff20	-0.3574152
144	0xbe907889	-0.2821696
145	0xbe84d61a	-0.25944597
146	0xbe48c987	-0.19608127
147	0x3e93d337	0.28872082
148	0xbeb1dbd9	-0.34738043
149	0xbe2f11af	-0.1709659
150	0x3e96802a	0.29394656
151	0x3d44a9ab	0.04801337
152	0xbd9057a8	-0.07047969
153	0xbe9f643f	-0.3113117
154	0x3ea8cc03	0.3296815
155	0xbe283b97	-0.16428982
156	0xbe9ec38d	-0.31008568
157	0x3da2662b	0.07929643
158	0xbeae8e3f	-0.340929
159	0xbe4e4819	-0.2014469

incep1.branch_3x3_1.bias f4 [16]
0	0x3e95ea3a	0.29280263
1	0x3e73204a	0.23742786
2	0x3e536a64	0.20646054
3	0x3d7cab8d	0.06168704
4	0xbd2fc6ad	-0.04291408
5	0x3e6f1a22	0.23349813
6	0x3debdd56	0.11516826
7	0x3c15fca6	0.009154474
8	0x3d924ab4	0.07143155
9	0xbe18ea9b	-0.14933245
10	0x3e5f08b3	0.21780662
11	0x3e6c7cf8	0.23094547
12	0x3d1f974b	0.038962644
13	0xbdcd0620	-0.10010934
14	0x3e5dfbd9	0.21678104
15	0x3e949331	0.29018548

incep1.branch_3x3_2.weight f4 [24, 16, 3, 3]
0	0x3d026b1e	0.031840436
1	0xbd2b29bd	-0.04178785
2	0xbc8104bc	-0.015749328
3	0x3d9f32a9	0.077733345
4	0xbd21879b	-0.039435964
5	0x3d84c05d	0.06482003
6	0x3c78bd17	0.015181801
7	0xbd4aa093	-0.04946954
8	0xbd1cc5ac	-0.038274452
9	0xbcc4037b	-0.02392744
10	0x3d1bbde3	0.038022887
11	0xbd45b61f	-0.048269387
12	0x3ce5555c	0.027994804
13	0xbd0115e3	-0.031515013
14	0x3d95fcc7	0.07323604
15	0xbce868df	-0.028370319
16	0xbd8dea75	-0.06929485
17	0x3cfe4c58	0.031042263
18	0xbcec9c72	-0.028883193
19	0xbda5cdee	-0.080959186
20	0x3cfc8466	0.030824851
21	0x3c57f862	0.013181778
22	0x3d78e71c	0.060767278
23	0x3d3f2004	0.04666139
24	0x3d508281	0.05090571
25	0xbcfa975b	-0.03058975
26	0x3d24c754	0.040229157
27	0x3d2005b7	0.03906795
28	0xbd05539c	-0.03255044
29	0x3ca68884	0.020328768
30	0x3c916a6c	0.017750941
31	0x3dd93077	0.10604947
32	0xbd2e51ad	-0.04255836
33	0xbd372979	-0.044717286
34	0x3da11af5	0.0786647
35	0x3d92bb8e	0.071646795
36	0x3b48ab5b	0.0030619714
37	0x3d967599	0.07346649
38	0xbb58eb7f	-0.003309935
39	0x3d7bd47c	0.061481938
40	0xbd856f99	-0.06515426
41	0x3d141efc	0.03616236
42	0xbd1b36bc	-0.037893996
43	0xba46bc05	-0.00075811177
44	0x3c2c1f03	0.010505441
45	0xbd1b1628	-0.037862927
46	0x3cca50f3	0.024696803
47	0x3d0d978e	0.034568362
48	0x3d1b2078	0.03787276
49	0x3d94e397	0.07269972
50	0x3d999c00	0.07500458
51	0x3cd0b392	0.02547625
52	0x3cc97149	0.024590151
53	0x3d470a0e	0.048593573
54	0xbd48f7ef	-0.049064573
55	0xbdb3b99e	-0.08775638
56	0xbc9a2c63	-0.018819993
57	0x3cf61636	0.030039888
58	0x3d3fec55	0.046856243
59	0x3d2f764e	0.042837434
60	0xbd8e61db	-0.06952258
61	0xbd4a9fa2	-0.049468644
62	0xbd52f37b	-0.051501732
63	0xbd981b5f	-0.074270956
64	0xbc9eebb1	-0.019399496
65	0x3dc0c16b	0.094118915
66	0xbbf9b53f	-0.007620483
67	0xbd61eb57	-0.05515608
68	0x3dc1a718	0.09455699
69	0x3d4ad255	0.049516995
70	0x3c69b202	0.014263632
71	0x3de0a6de	0.109693274
72	0xbd631b86	-0.05544617
73	0x3c9fa3b2	0.019487236
74	0xbaeb8a2a	-0.0017970253
75	0xbc58ef1e	-0.013240604
76	0xbd539e01	-0.051664356
77	0x3c9b019b	0.018921664
78	0x3c84a31a	0.016191054
79	0x3d9349be	0.071917996
80	0x3d1f093e	0.038827173
81	0xbd7a8c09	-0.061168704
82	0x3d256a69	0.040384684
83	0xbc80ba0e	-0.015713718
84	0xbd66cb32	-0.056346126
85	0x3b287857	0.0025706494
86	0xbd51258f	-0.05106121
87	0xbd926d87	-0.07149797
88	0xbd0d4ef0	-0.03449911
89	0xbdb5ec3d	-0.088829495
90	0xbd72a86e	-0.05924266
91	0x3dbed18a	0.0931731
92	0xbd5ab2eb	-0.053393286
93	0x3cad2abe	0.021138545
94	0xbcbd527a	-0.023110617
95	0x3c9d208d	0.01918056
96	0x3d2e0678	0.042486638
97	0x3cc6626f	0.024216859
98	0x3d87bcd1	0.06627811
99	0x3cccc542	0.024996404
100	0x3db11e5f	0.08648371
101	0x3c1c40df	0.009536951
102	0xbd28457f	-0.0410819
103	0x3d8bfe50	0.06835616
104	0xbd887537	-0.06662982
105	0xbd5a7c44	-0.053341165
106	0x3b1eae29	0.0024212694
107	0xbd842da1	-0.064540155
108	0xbc7ea143	-0.0155413775
109	0xbb60860c	-0.0034259586
110	0xbd8b279f	-0.067946665
111	0x3cfe2aff	0.031026362
112	0x3d733167	0.059373286
113	0xbcae07c7	-0.021243943
114	0xbc87d640	-0.016581655
115	0xbd51c1a2	-0.051210053
116	0x3d808029	0.062744446
117	0xbd297a81	-0.041376594
118	0xbcf00047	-0.029297007
119	0x3c98d21c	0.018654875
120	0xbc374c3a	-0.011187607
121	0xbc38334e	-0.011242701
122	0x3d9f9c1a	0.07793446
123	0x3da19ac9	0.07890851
124	0xbc9b2f3b	-0.01894342
125	0xbccb938c	-0.02485063
126	0x3d29b9ff	0.041437145
127	0xbd2343ce	-0.039859585
128	0x3d29a546	0.041417383
129	0xbd3d077b	-0.046149712
130	0x3d1f64c8	0.038914472
131	0x3dbee1d9	0.09320421
132	0x3d73d7b3	0.05953188
133	0x3c7cfe50	0.015441492
134	0x3e08d9aa	0.13364282
135	0xba4771da	-0.0007608213
136	0x3cca2247	0.024674548
137	0xbd93547e	-0.0719385
138	0x3d84c6e6	0.06483249
139	0xbd4eb234	-0.050462916
140	0x3db8c1ee	0.09021364
141	0x3c2a5ea1	0.010398538
142	0x3cee0581	0.029055359
143	0x3ca6b659	0.020350622
144	0x3c6afcee	0.01434253
145	0x3cada0e6	0.021194886
146	0x3d17bfce	0.037048154
147	0xbdb4ec1b	-0.08834096
148	0xbd9c166f	-0.07621466
149	0x3d832722	0.06403948
150	0xbaac3562	-0.0013138468
151	0x3d2395cf	0.03993779
152	0xbc38c457	-0.01127728
153	0xbc0a1cf5	-0.008429755
154	0x3d69e6d9	0.05710492
155	0xbbcd1055	-0.0062580504
156	0x3d97fd6c	0.07421383
157	0x3d2bb467	0.041920092
158	0x3d1f7ad7	0.03893551
159	0x3d8fd7a3	0.07023551
160	0xba145599	-0.0005658507
161	0x3d8153ed	0.06314836
162	0xbd088f08	-0.03333953
163	0x3c4b0f54	0.012393791
164	0x3c01a510	0.007912889
165	0xbd758938	-0.059945315
166	0x3c885ade	0.016644891
167	0xbc9bdb36	-0.019025426
168	0x3b2f9441	0.0026791247
169	0xbcf943d8	-0.030427858
170	0xbd1f86e5	-0.038947005
171	0xbd0010a7	-0.03126588
172	0x3c485cae	0.012229128
173	0x3d80d6bd	0.06290958
174	0xbd4e8f2b	-0.050429504
175	0xbc4766db	-0.012170519
176	0x3c598369	0.0132759595
177	0x3d15383c	0.036430582
178	0x3c66b8e3	0.014082166
179	0x3d499f5e	0.04922425
180	0x3dbf2f6c	0.09335217
181	0x3d88cf57	0.06680172
182	0x3d7cf53e	0.06175732
183	0x3c99f2fc	0.018792622
184	0xbcfef7b0	-0.031123966
185	0xbd1d1d36	-0.038357936
186	0xbd294204	-0.041322723
187	0xbcc45035	-0.023964027
188	0x3da0600f	0.07830822
189	0x3d4767ba	0.048682906
190	0x3c1ee3e0	0.009697884
191	0xbc84436f	-0.016145436
192	0x3d00f31c	0.031481847
193	0x3d17a3eb	0.03702156
194	0x3d896eb0	0.06710565
195	0xbc276f07	-0.010219342
196	0x3b8686d7	0.0041054296
197	0x3d61efa3	0.055160176
198	0x3d89db59	0.0673129
199	0x3cd3cf0a	0.02585556
200	0x3d8b8f53	0.06814446
201	0x3da7d8e6	0.08195667
202	0x3c834d21	0.016027989
203	0xbc18325f	-0.009289353
204	0x3d5dadac	0.054120705
205	0xbd664492	-0.056217737
206	0xbd5004f4	-0.050785974
207	0xbd1f38b7	-0.038872447
208	0xbd82ca37	-0.06386226
209	0xbca12b3e	-0.01967394
210	0xbccb7a39	-0.024838554
211	0x3bf717f3	0.0075406968
212	0xbdea8195	-0.11450497
213	0xbe08457c	-0.13307756
214	0xbdfef8da	-0.124498084
215	0xbd108788	-0.035285503
216	0xbd6f1743	-0.058371793
217	0xbdd081a3	-0.10180976
218	0x3c80e886	0.015735876
219	0xbceb8e67	-0.028754426
220	0xbdbdb220	-0.0926249
221	0xbdb5b033	-0.08871498
222	0xbc0e6ecf	-0.008693411
223	0x3b58ab9f	0.0033061279
224	0x3b89ad70	0.0042015836
225	0xbdcd7ccf	-0.10033571
226	0xbd96b420	-0.07358575
227	0xbd7c83e9	-0.061649237
228	0x3d1ec8d9	0.038765762
229	0xbd9152ba	-0.07095857
230	0xbd7d6e15	-0.06187256
231	0x3d67ab5c	0.056559905
232	0xbc08e2db	-0.008354868
233	0x3baa67c8	0.00520036
234	0xbd3d9762	-0.046286948
235	0xbd4f1a8f	-0.050562438
236	0xbdbf8be5	-0.09352855
237	0xbd1ff3a8	-0.039050728
238	0xbdbf9d49	-0.09356172
239	0x3bc2c378	0.005943712
240	0xbcad14ac	-0.021128021
241	0xbc384423	-0.011246714
242	0xbdb8286d	-0.089920856
243	0x3cfbc833	0.03073511
244	0xbd558648	-0.052130014
245	0xbd317486	-0.043324016
246	0xbd17440b	-0.036930125
247	0xbd568c16	-0.05237969
248	0x3c8e2955	0.017353693
249	0xbd9cb9dc	-0.07652637
250	0xbd9ce4fe	-0.07660864
251	0xbd97afaf	-0.07406556
252	0x3dd5c24f	0.10437452
253	0x3da0e34f	0.07855856
254	0x3da126b3	0.078687094
255	0xbc3d6552	-0.011559801

incep1.branch_3x3_2.bias f4 [24]
0	0x3cfd7530	0.030939668
1	0x3d86fdf9	0.0659141
2	0xbd36297a	-0.04447315
3	0x3ce3fbb4	0.027829982
4	0xbd448b94	-0.047984675
5	0x3d969352	0.07352318
6	0x3cfeec85	0.03111864
7	0x3c2e95e1	0.010655851
8	0xba2abc1a	-0.00065130147
9	0x3d552d0c	0.052044913
10	0x3d26c40d	0.040714312
11	0xbc35c8e9	-0.011095264
12	0xbcd1234b	-0.025529524
13	0x3d4e0262	0.05029524
14	0xbd563ed7	-0.052306022
15	0x3da3e678	0.08002943
16	0x3d4f8893	0.050667357
17	0xbd460f5b	-0.048354488
18	0xbd9d14e0	-0.07669997
19	0xbd924228	-0.071415246
20	0x3d4d5bfe	0.05013656
21	0x3d090df9	0.03346059
22	0xbd80dd66	-0.062922284
23	0xbd0b8d35	-0.034070212
